dl-lab-2023-rl-master/models_cartpole/dqn_agent.pt (torch, 655015 bytes, 6 tensors)

fc1.weight f4 [400, 4]
0	0xbed557ec	-0.41668642
1	0xbf07ad59	-0.5299888
2	0xbf1a4a27	-0.602694
3	0x3d9ab907	0.075548224
4	0x3f1466e3	0.5796949
5	0xbf06c364	-0.5264189
6	0xbed25d48	-0.41086793
7	0xbedbc07c	-0.4292029
8	0x3e3fb6ee	0.18722126
9	0xbd74051d	-0.05957519
10	0xbea527a3	-0.32256803
11	0x3e90cfca	0.2828353
12	0x3e5149cf	0.20438312
13	0xbda30b30	-0.07961118
14	0xbee640ed	-0.4497141
15	0x3d8a8352	0.067633286
16	0xbf0dcdbd	-0.55392057
17	0x3c69d74d	0.014272523
18	0x3e922a12	0.28547722
19	0xbe8d2600	-0.27568054
20	0xbd597e4a	-0.053098954
21	0xbeec8b99	-0.46200255
22	0xbee84b24	-0.45369828
23	0xbdcb62cb	-0.09930953
24	0xbea33763	-0.31878194
25	0x3e120a2c	0.14261693
26	0x3edac3a9	0.42727402
27	0x3e7b1dee	0.24523136
28	0xbee9de74	-0.4567753
29	0x3db7e3b5	0.089789785
30	0x3e9230e1	0.28552917
31	0x3ed981f6	0.42481965
32	0x3e39ca78	0.18143642
33	0x3ea68e89	0.3253062
34	0xbe9c73fe	-0.30557245
35	0x3dbaa4c3	0.09113457
36	0x3de74907	0.11293226
37	0xbeac85f8	-0.3369596
38	0xbe897b3e	-0.2685184
39	0xbddc13b5	-0.10745946
40	0xbe95d587	-0.2926447
41	0x3be8701e	0.0070934435
42	0xbeff3d81	-0.4985161
43	0xbf010e5a	-0.50412524
44	0x3dc1f4b7	0.09470504
45	0x3e01cd89	0.12676062
46	0x3c9ae3d8	0.018907472
47	0xbe7394e8	-0.23787272
48	0x3e85de02	0.2614594
49	0xbdc02b80	-0.09383297
50	0xbe9514c0	-0.29117393
51	0x3ecc7de4	0.39939797
52	0x3ed3b102	0.41345984
53	0x3e4fd07f	0.20294379
54	0xbe5d31d1	-0.21601035
55	0xbdb3594f	-0.08757269
56	0x3ea8033f	0.32814977
57	0x3d7c3958	0.061578125
58	0x3ebba342	0.36647993
59	0x3e4a4631	0.19753338
60	0x3e6df968	0.23239672
61	0xbe779d38	-0.24181068
62	0x3d0aa0e0	0.03384483
63	0xbe1f5a70	-0.15561843
64	0xbedb5576	-0.4283864
65	0xbedbc80f	-0.4292607
66	0x3f2645c7	0.6495022
67	0xbd92d178	-0.07168859
68	0x3d768de9	0.06019393
69	0x3e886066	0.26636046
70	0xbe89f708	-0.26946282
71	0x3eb8b63f	0.36076543
72	0xbe2dc1f4	-0.16968518
73	0x3ecafbbf	0.39645192
74	0xbe0133f8	-0.12617481
75	0x3e4cf631	0.2001579
76	0xbedb01f2	-0.42774922
77	0xbed883c7	-0.42288038
78	0x3e017f23	0.12646155
79	0xbea55afb	-0.32295975
80	0x3ed59d79	0.41721705
81	0xbe738056	-0.23779425
82	0xbebf0062	-0.3730498
83	0xbece4c90	-0.40292788
84	0x3e5c1db1	0.21495701
85	0x3df258af	0.11833321
86	0x3f0826d2	0.53184235
87	0x3c98e92e	0.018665876
88	0xbe530801	-0.20608522
89	0xbec384da	-0.38187295
90	0x3eb94d0f	0.36191604
91	0x3de4ba17	0.11168306
92	0xbe16f99a	-0.14743653
93	0xbe977c5c	-0.29587066
94	0xbd8d41e9	-0.06897337
95	0xbd854c22	-0.06508662
96	0xbe7941f3	-0.24341564
97	0x3ed5890d	0.41706124
98	0x3df20818	0.1181795
99	0xbbb3fc83	-0.005492748
100	0x3e802300	0.25026703
101	0xbef787ae	-0.48345703
102	0xbf2466f3	-0.6421959
103	0x3ed1f4b9	0.4100702
104	0x3d027c58	0.031856865
105	0xbdc00803	-0.09376528
106	0xbf20cdb0	-0.62813854
107	0xbeb32fd0	-0.34997416
108	0x3e711d02	0.23546222
109	0xbedf8fd2	-0.43664414
110	0xbeff3917	-0.49848244
111	0x3e834b3b	0.25643334
112	0x3e9f8ad2	0.311606
113	0xbe1a1223	-0.15045981
114	0x3f2ed5ab	0.6829478
115	0x3e6ecde3	0.23320727
116	0xbe7468bb	-0.23868077
117	0x3efd0d68	0.4942429
118	0x3e905d4d	0.28196183
119	0x3d89feb6	0.067380354
120	0xbedae9e4	-0.4275657
121	0xbeed467b	-0.46342835
122	0x3e4d312b	0.20038287
123	0x3f025dd6	0.5092443
124	0x3e2a9065	0.16656645
125	0x3ead3caf	0.3383536
126	0x3d75c07f	0.05999803
127	0xba494001	-0.0007677079
128	0xbdc3f82d	-0.0956882
129	0xbee7c7fd	-0.45269766
130	0x3f23baf4	0.6395714
131	0x3dde4d1f	0.108545534
132	0xbe1ae0c3	-0.15124802
133	0xbf049673	-0.5179207
134	0xbf150050	-0.582036
135	0xbee7a47a	-0.45242673
136	0xbd162d8c	-0.03666453
137	0xbe72ae3f	-0.23699282
138	0x3eaef43c	0.3417071
139	0xbebc523c	-0.3678149
140	0xbe941302	-0.28920752
141	0x3ce7cb72	0.028295252
142	0x3ed186c0	0.4092312
143	0x3e78d457	0.24299751
144	0xbe90fba7	-0.28316996
145	0x3d822b39	0.063559
146	0xbeb668ec	-0.35626924
147	0xbead15e1	-0.33805755
148	0x3e0de2c4	0.13856035
149	0xbe8faeeb	-0.2806314
150	0xbf12520d	-0.5715645
151	0x3e0e854d	0.13918038
152	0x3f07d956	0.53066003
153	0x3eefcc64	0.46835625
154	0x3d2dd632	0.0424406
155	0xbed6c577	-0.4194753
156	0x3e1d2279	0.15345182
157	0xbeb983b2	-0.36233288
158	0xbe9ed154	-0.3101908
159	0xbedc4732	-0.43023068
160	0xbd23a6a9	-0.03995386
161	0xbec9d21d	-0.39418116
162	0x3cfd7bdf	0.030942855
163	0x3ec4fca7	0.38474008
164	0xbecfa5e7	-0.4055626
165	0x3eb0a01e	0.3449716
166	0xbee4a261	-0.44655135
167	0xbe28914b	-0.16461675
168	0x3e001b83	0.12510495
169	0xbdafbf0f	-0.085813634
170	0x3e2967d4	0.16543514
171	0x3d59450b	0.05304436
172	0x3e18ad82	0.14909938
173	0x3edc8d44	0.43076527
174	0xbda5f28a	-0.08102901
175	0x3dd3197e	0.103075966
176	0x3d747afe	0.059687607
177	0xbe745e4e	-0.238641
178	0xbe98f940	-0.29877663
179	0x3eddf9e5	0.43354717
180	0x3e2ee3ca	0.17079082
181	0x3d32b8d7	0.04363331
182	0x3e2e0962	0.16995767
183	0x3e9b3235	0.30311742
184	0x3e0b88a3	0.13626342
185	0x3f01740c	0.505677
186	0x3e48e7bf	0.19619654
187	0xbd33eeb1	-0.043928806
188	0x3eb89fde	0.3605947
189	0x3da643f2	0.08118428
190	0xbda78c40	-0.081810474
191	0x3c88aa9d	0.016682917
192	0xbf13b6d5	-0.57700855
193	0x3e4d525b	0.20050947
194	0x3e908596	0.28226918
195	0xbe19bced	-0.15013476
196	0xbe2bb169	-0.16766895
197	0x3ed93bb2	0.42428356
198	0xbeed6674	-0.46367228
199	0xbebb3bc0	-0.36569023
200	0x3eb698ae	0.3566336
201	0xbea034b0	-0.31290197
202	0xbd7915a0	-0.06081164
203	0xbe113b88	-0.14182866
204	0xbd566e7e	-0.052351467
205	0xbd002c66	-0.03129234
206	0xbe056423	-0.1302648
207	0xbed0d7d5	-0.40789667
208	0x3e1c6e6b	0.15276496
209	0x3d8a5e67	0.06756287
210	0x3e769b95	0.24082787
211	0x3e8333e6	0.25625533
212	0x3ddcc498	0.10779685
213	0x3ee630b4	0.44959033
214	0xbebf967f	-0.37419507
215	0xbe96a76d	-0.2942461
216	0xbe6ca32b	-0.23109119
217	0xbe90760c	-0.28215063
218	0x3f1acc76	0.6046823
219	0x3d87c63f	0.06629609
220	0xbf0f15a9	-0.55892426
221	0x3d896ae6	0.067098424
222	0xbe1862c3	-0.14881425
223	0xbe3a971a	-0.18221703
224	0x3d6e86ee	0.058234148
225	0xbef4f080	-0.47839737
226	0x3d86bd92	0.065791264
227	0x3ed4902c	0.41516244
228	0xbe57548b	-0.21028344
229	0xbd561f10	-0.052275717
230	0xbf35d344	-0.7102549
231	0xbed31829	-0.4122937
232	0xbceb86db	-0.028750828
233	0x3ef6b533	0.4818512
234	0x3effbb30	0.499475
235	0x3cafb842	0.021450166
236	0x3ec701e2	0.38868624
237	0x3ef0a67c	0.47002017
238	0xbd28baf4	-0.041193917
239	0x3e011a3c	0.12607664
240	0x3e6058f4	0.21908933
241	0xbe720e9c	-0.23638386
242	0x3e428f88	0.19000065
243	0xbe27cab0	-0.16385913
244	0xbe64dc71	-0.22349717
245	0x3e8b890f	0.27253005
246	0x3f09d2db	0.53837365
247	0xbdfe55d5	-0.12418715
248	0x3dc43c63	0.0958183
249	0x3ebbea78	0.36702323
250	0xbb04f39c	-0.0020286804
251	0x3db6cdc4	0.089259654
252	0x3ea03117	0.31287453
253	0xbe88ff77	-0.26757404
254	0x3d69dccc	0.057095334
255	0x3dafcc97	0.08583944

fc1.bias f4 [400]
0	0xbcaf646a	-0.021410186
1	0x3cb3ef30	0.02196464
2	0x3ef5e669	0.48027351
3	0xbdae24a7	-0.08503085
4	0x3eba58aa	0.3639577
5	0xbe4b6e4e	-0.19866297
6	0xbd83c9e4	-0.06434992
7	0xbec089fd	-0.37605277
8	0xbe208000	-0.15673828
9	0x3ea3811b	0.31934437
10	0xbd9d585f	-0.07682871
11	0xbe96759b	-0.293866
12	0xbe06e264	-0.13172299
13	0xbeaea4f8	-0.34110236
14	0xbefa2eb6	-0.48863763
15	0xbe6ebc8c	-0.23314112
16	0xbe0de628	-0.13857329
17	0x3e8c29d2	0.27375656
18	0x3efc4a6a	0.49275523
19	0x3efe329c	0.49647987
20	0x3ea57d82	0.32322317
21	0x3e38c55a	0.18044034
22	0x3f00e94c	0.5035598
23	0xbeaed625	-0.34147754
24	0x3df16953	0.11787667
25	0xbd1373cd	-0.035999108
26	0xbe9c5bfe	-0.30538934
27	0x3e8d5ebe	0.27611345
28	0xbdff2cfd	-0.12459753
29	0x3e9579a6	0.29194373
30	0xbebaf456	-0.3651454
31	0xbe9b2a27	-0.30305597
32	0xbe9e92c6	-0.30971354
33	0xbc9bc459	-0.019014524
34	0x3edfbb97	0.43697807
35	0x3eee1385	0.46499267
36	0xbc649578	-0.013951652
37	0x3ec84aba	0.39119512
38	0xbce21583	-0.027598148
39	0x3df11e54	0.11773363
40	0xbecbbc39	-0.3979204
41	0xbe3c001e	-0.1835942
42	0xbdaec29b	-0.08533212
43	0x3e575395	0.21027978
44	0xbec59fcc	-0.38598478
45	0xbd69311b	-0.056931596
46	0xbe3de7e9	-0.18545498
47	0x3e58ca62	0.21170953
48	0xbdcf7acf	-0.10130846
49	0xbebc0a33	-0.3672653
50	0xbee88f92	-0.45422035
51	0xbe5d3c5f	-0.21605061
52	0xbdb433a2	-0.08798911
53	0xbebfb105	-0.37439743
54	0xbeadda6e	-0.3395571
55	0x3e87daa0	0.26533985
56	0xbef89005	-0.48547378
57	0xbe35db70	-0.1775949
58	0xbe882d2f	-0.26596972
59	0xbea3583f	-0.31903264
60	0xbed47b78	-0.4150045
61	0xbe149721	-0.14510776
62	0xbe53aae1	-0.20670654
63	0x3d08b99f	0.033380147
64	0xbcad17ca	-0.021129508
65	0xbbd5944d	-0.006517923
66	0xbdead35c	-0.11466095
67	0x3d853f0d	0.065061666
68	0x3e217c5d	0.15770097
69	0x3ec7e7ef	0.3904414
70	0x3ecf638a	0.4050563
71	0xbd10867d	-0.035284508
72	0xbe1e0db3	-0.15434913
73	0x3e6bcbf5	0.23027022
74	0x3e88bce7	0.2670662
75	0x3e8c7485	0.27432647
76	0xbe40db03	-0.18833546
77	0xbe219d54	-0.15782672
78	0x3e2a260b	0.16616075
79	0x3c924932	0.017857168
80	0x3e87555f	0.2643232
81	0x3e8cd25e	0.27504247
82	0xbda125c9	-0.07868535
83	0x3e36da2e	0.17856666
84	0x3ed27f6d	0.41112843
85	0xbe510dea	-0.20415464
86	0x3e79ad5c	0.24382538
87	0x3ee79ad5	0.45235315
88	0x3d6a37f5	0.05718227
89	0xbe81420c	-0.25245702
90	0xbe40ad4a	-0.18816105
91	0xbdf441b5	-0.11926595
92	0x3ea46478	0.32107902
93	0xbe974c22	-0.29550272
94	0x3e243798	0.16036832
95	0xbda03c58	-0.0782401
96	0xbdb8adf3	-0.09017553
97	0x3e9f5d3c	0.3112582
98	0x3ed2b034	0.41150057
99	0x3c5ac372	0.013352262
100	0x3ed2420e	0.4106602
101	0xbe0d4ab3	-0.13798027
102	0x3ec8138a	0.39077407
103	0xbdf3e22b	-0.119083725
104	0x3e155687	0.14583789
105	0xbe273c79	-0.16331662
106	0xbe6c0318	-0.23048055
107	0x3ed60643	0.41801652
108	0x3ea6bafc	0.32564533
109	0xbc6f4488	-0.0146037415
110	0xbcb5d19d	-0.022194678
111	0x3e8dee14	0.27720702
112	0xbeb1e5c0	-0.34745598
113	0xbe57f49b	-0.21089403
114	0x3ea8ff07	0.3300707
115	0x3e8ce47f	0.2751808
116	0x3ec75466	0.38931578
117	0x3efae6d2	0.49004227
118	0xbe515ecb	-0.20446317
119	0x3ed99345	0.4249517
120	0xbdeea143	-0.11651852
121	0xbedfcfc7	-0.4371321
122	0x3d968677	0.07349866
123	0x3dda4275	0.10657207
124	0xbe459621	-0.19295551
125	0xbcaacabf	-0.02084863
126	0xbe910e83	-0.28331384
127	0xbf0930da	-0.53590167
128	0x3d07478a	0.03302721
129	0xbe82b589	-0.25529125
130	0x3e4d1e11	0.20031
131	0x3f00b734	0.50279546
132	0x3ed05e81	0.406971
133	0xbe87e8e8	-0.2654488
134	0x3eccf0da	0.40027505
135	0xbee331f1	-0.4437404
136	0xbd241190	-0.04005581
137	0x3f03ea4a	0.5152937
138	0x3e29d21f	0.16584061
139	0xbdbe8336	-0.0930237
140	0x3eaa4db6	0.33262414
141	0xbef74fea	-0.48303157
142	0x3daf8d5f	0.08571886
143	0xbe0f1440	-0.13972569
144	0x3e27c936	0.1638535
145	0xbee5f650	-0.44914484
146	0xbe85a0ee	-0.26099342
147	0x3e2dc7be	0.16970727
148	0x3f041808	0.5159917
149	0x3eddfe14	0.4335791
150	0x3ee7bf03	0.45262918
151	0x3ebe9981	0.3722649
152	0x3ec95bde	0.39327902
153	0x3eed7a6c	0.46382463
154	0x3e7d0e42	0.2471247
155	0xbe863d8d	-0.26218835
156	0x3da28dbf	0.07937192
157	0x3e812de6	0.2523033
158	0x3f0a28d6	0.5396856
159	0xbedede57	-0.43529007
160	0x3d401f28	0.046904713
161	0x3e7f0e95	0.24907906
162	0xbeec1ac5	-0.46114174
163	0x3e3ad04d	0.18243523
164	0x3eff6d71	0.49888185
165	0x3e03338b	0.12812631
166	0x3e3595f5	0.17732985
167	0xbeafff7f	-0.34374616
168	0xbe8ee48c	-0.27908742
169	0xbe8ddaa4	-0.27705872
170	0x3dbbafb5	0.09164373
171	0x3ec2eec0	0.38072777
172	0x3ecd4150	0.40088892
173	0xbdf7873c	-0.12086341
174	0x3e3dbd7b	0.18529312
175	0x3e806d96	0.25083607
176	0x3efa7874	0.48920023
177	0x3ec74ef0	0.38927412
178	0x3ed5e309	0.41774777
179	0x3eebb7a7	0.46038553
180	0x3f05d1a9	0.5227304
181	0x3e4704dd	0.19435449
182	0xbecd5ab6	-0.4010827
183	0x3dff82e7	0.124761395
184	0x3ecbb20a	0.3978427
185	0xbed1aa5c	-0.40950286
186	0x3effcc84	0.4996072
187	0xbe2b5e9a	-0.16735306
188	0x3d37f409	0.044910464
189	0xbc2aa2cf	-0.010414793
190	0x3e8442d1	0.25832227
191	0x3e5b2e09	0.2140428
192	0xbef82106	-0.48462695
193	0xbefba518	-0.49149394
194	0x3f025e15	0.5092481
195	0xbeb134e4	-0.34610665
196	0xbeb5d1af	-0.35511538
197	0xbbaed5b0	-0.005335532
198	0xbef3952f	-0.47574756
199	0x3df974a5	0.12180451
200	0xbd9b7b49	-0.07591874
201	0x3e23b96d	0.15988703
202	0xbed47fd1	-0.41503766
203	0x3f07111e	0.52760494
204	0xbe9fb294	-0.31190932
205	0x3ee8f660	0.4550047
206	0xbaeded6a	-0.001815242
207	0x3e9fc340	0.3120365
208	0xbe8b5b48	-0.2721808
209	0x3ec35fc7	0.3815901
210	0xbe984d60	-0.29746532
211	0xbe9473dc	-0.28994644
212	0xbef85a09	-0.4850619
213	0xbebb94cf	-0.3663697
214	0xbebe1d5f	-0.37131783
215	0x3eacf5ab	0.3378118
216	0x3e6d5782	0.23177913
217	0x3e66e4e1	0.22548248
218	0xbed415d9	-0.41422918
219	0x3ec2318e	0.37928432
220	0xbe0a1573	-0.13484745
221	0xbe892e41	-0.267931
222	0xbe016732	-0.12637022
223	0x3e23024e	0.15918848
224	0xbedb59f0	-0.42842054
225	0xbeac5474	-0.33658183
226	0xbed0b4d4	-0.4076296
227	0x3dccdd3c	0.100031346
228	0x3ee717e3	0.45135412
229	0x3d86d20a	0.065830305
230	0x3e88f7a9	0.2675145
231	0xbd809208	-0.06277853
232	0xbe3b9003	-0.18316655
233	0x3f017222	0.5056478
234	0x3eaecc38	0.34140182
235	0x3f05d041	0.52270895
236	0x3ea3659f	0.31913468
237	0x3efb3d31	0.49070123
238	0xbeeac1e7	-0.4585106
239	0xbe0bfbaa	-0.13670221
240	0xbe4c24cc	-0.19935912
241	0x3ed2653b	0.41092858
242	0x3ebff40f	0.3749089
243	0x3eb85ee1	0.36009887
244	0x3f07ed6f	0.5309667
245	0x3e8e1280	0.2774849
246	0xbeda01db	-0.4257954
247	0xbe4f83cc	-0.2026512
248	0xbeecc552	-0.46244293
249	0x3e8b216b	0.27173933
250	0xbea2bfbb	-0.31786904
251	0x3cf0562c	0.029337965
252	0x3ebde90a	0.37091857
253	0xbea5307b	-0.3226355
254	0xbd7d329c	-0.061815843
255	0xbeced9b7	-0.40400478

fc2.weight f4 [400, 400]
0	0xbd547416	-0.05186852
1	0x3ddffc67	0.10936814
2	0xbd40b888	-0.047050983
3	0x3d5e15de	0.054220073
4	0xbd6c2616	-0.05765351
5	0xbb2044ad	-0.0024454996
6	0x3d166404	0.036716476
7	0x3c4127a0	0.0117892325
8	0x3c9b466d	0.01895448
9	0xbc16d8ec	-0.009206992
10	0x3da18f85	0.07888702
11	0xbcd97876	-0.026546698
12	0x3d83d134	0.06436387
13	0x3ddb9cb4	0.10723248
14	0x3c9959ed	0.018719638
15	0x3c8fe72a	0.017566282
16	0x3bc27223	0.0059340163
17	0x3bb40287	0.0054934653
18	0xbd67bcf2	-0.056576677
19	0x3b6d92ac	0.0036250753
20	0x3d90d3d3	0.07071652
21	0xbdbab9cb	-0.091174684
22	0x3c3c9c06	0.011511808
23	0xbcb26b90	-0.021779805
24	0xbd7054d7	-0.05867466
25	0x3bbc6763	0.0057496293
26	0x3e1b6f51	0.15179183
27	0xbcaf462f	-0.02139577
28	0xbd2d8866	-0.042366408
29	0xbd332547	-0.043736722
30	0xbd250a74	-0.040293172
31	0x3bb94744	0.0056542475
32	0xbd04b2af	-0.03239697
33	0x3e2d04a4	0.16896302
34	0xbd4f4728	-0.05060497
35	0xbdc4ca54	-0.096089035
36	0x3b114f43	0.0022172488
37	0xbbd47925	-0.006484168
38	0xbd2e3b8c	-0.042537257
39	0x3da6f88d	0.08152876
40	0x3c0da05a	0.008644188
41	0x3d847401	0.064674385
42	0x3d331018	0.04371652
43	0xbc7716f7	-0.015081159
44	0xbbd88c73	-0.0066085397
45	0xbb7dfd89	-0.0038755855
46	0xbc12c639	-0.008958393
47	0x3ca1dc4f	0.019758372
48	0xbdb076cb	-0.08616408
49	0x3ba5765c	0.00504951
50	0x3c8d75fa	0.01726817
51	0x3beebfb3	0.007286036
52	0xbd9e00c1	-0.077149875
53	0x3c8677c5	0.016414532
54	0xbbf4b072	-0.007467323
55	0x3bde235d	0.006779118
56	0xbcd55037	-0.026039226
57	0x3da5fe41	0.08105136
58	0xbe343be3	-0.1760097
59	0xbd6cbb6c	-0.057795927
60	0xbc9db427	-0.019250942
61	0xbceb868b	-0.028750679
62	0xbc055ad1	-0.008139328
63	0xbd9a3ffd	-0.07531736
64	0xbd832219	-0.06402988
65	0x3d278a7a	0.040903546
66	0x3d9537c4	0.07286027
67	0x3db29ca4	0.08721283
68	0xbcdc4617	-0.02688889
69	0x3d12bbd4	0.035823658
70	0xbd4331b8	-0.047654837
71	0xbc9eda65	-0.019391248
72	0x3cddd6ec	0.027080022
73	0x3cd22342	0.025651578
74	0x3d571cc5	0.05251767
75	0xbc015c8f	-0.007895603
76	0x3dde3cd4	0.10851446
77	0x3c4d121f	0.012516527
78	0x3d125679	0.035726998
79	0xbdb44217	-0.08801668
80	0x3c74927f	0.0149275055
81	0xbd2c0f82	-0.042006977
82	0xbd490a06	-0.049081825
83	0xbcff6788	-0.031177297
84	0xbbb6750c	-0.0055681523
85	0xbd863a79	-0.065541215
86	0x3c8f358f	0.017481593
87	0xbcdc88a4	-0.026920624
88	0xbc21ff8d	-0.009887588
89	0xbc2c1094	-0.010501999
90	0x3e3e77c0	0.18600368
91	0x3dd9aa3d	0.106281735
92	0x3c67f3da	0.01415726
93	0x3cc55e77	0.024092896
94	0xbc6bc08d	-0.014389169
95	0x3c803238	0.015648946
96	0xbe0c07bf	-0.1367483
97	0xbc97b1f2	-0.018517468
98	0x3bb7f37c	0.0056137424
99	0xba88d168	-0.0010438384
100	0xbd67c0b0	-0.056580245
101	0x3c30b309	0.010784873
102	0xbb3c82e3	-0.0028764538
103	0xbd6bdf01	-0.05758572
104	0x3d43f098	0.04783687
105	0x3c939a43	0.018017894
106	0x3c9b3c06	0.01894952
107	0xbcd90343	-0.026490813
108	0xbd852a91	-0.065022595
109	0x3d918b3b	0.07106634
110	0x3e2bcbd7	0.16776977
111	0x3cb99aac	0.022656761
112	0x3d22f569	0.039784823
113	0xbd0ca04b	-0.034332555
114	0x3d38b01d	0.04508983
115	0x3d8a9fc7	0.06768756
116	0x3d4de16d	0.05026381
117	0x3d183445	0.037159223
118	0x3d19cc52	0.03754837
119	0x3c577c9b	0.013152267
120	0xbd47aedf	-0.048750754
121	0xbc24159a	-0.010014916
122	0x3c3b71a1	0.011440665
123	0xbae79cf6	-0.0017670679
124	0xbd2fac7d	-0.042889107
125	0x3d03841f	0.032108422
126	0xbcc91d12	-0.024549995
127	0x3ce3ab17	0.027791543
128	0x3c99644f	0.018724589
129	0xbcfdafdd	-0.030967647
130	0x3d269182	0.04066611
131	0x3c46a225	0.012123619
132	0xbd7b36c9	-0.061331544
133	0xbd0bb0f7	-0.034104314
134	0x3ce9cbb8	0.028539523
135	0x3d61b70d	0.05510621
136	0x3d330441	0.04370523
137	0xbd4acb42	-0.049510248
138	0xbca6e196	-0.02037124
139	0xbd86558f	-0.06559288
140	0xbd48ce2e	-0.049024753
141	0xbce51327	-0.027963234
142	0xbddd81a8	-0.108157456
143	0xbc1c4e7d	-0.009540197
144	0xbd9cee0f	-0.076625936
145	0x3d2be390	0.041965067
146	0x3ce6cc8d	0.02817371
147	0xb92a5ec6	-0.00016247769
148	0x3b00b360	0.0019638166
149	0x3c698cef	0.014254793
150	0xbd24f1b7	-0.04026958
151	0xbd37b703	-0.044852268
152	0xbc6949d4	-0.014238793
153	0xbd3b8241	-0.045778517
154	0xbd4a40cb	-0.049378198
155	0x3dd3b4d2	0.10337223
156	0x3d298e4b	0.041395467
157	0x3d08ea88	0.03342679
158	0x3bf9bf25	0.007621663
159	0xbb216081	-0.0024624171
160	0xbd03d94b	-0.03218965
161	0xbd471ae8	-0.048609644
162	0x3d45ae75	0.04826208
163	0x3c94cb9f	0.0181635
164	0x3d43a76a	0.04776708
165	0x3b3e6ae2	0.0029055406
166	0xbd4834c8	-0.04887846
167	0xbc185235	-0.009296943
168	0x3d72f389	0.059314284
169	0xbd6fd7ab	-0.058555286
170	0x3d56a774	0.05240579
171	0x3d0c53f8	0.034259766
172	0xbd4b4c14	-0.0496331
173	0x3c637634	0.013883162
174	0xbd2026ff	-0.03909969
175	0x3d22bdb6	0.039731704
176	0xba6804f9	-0.00088508386
177	0xbc587319	-0.013211035
178	0x3c99f8f0	0.01879546
179	0xbca18d73	-0.019720769
180	0x3c2d0193	0.010559457
181	0xbaa8d052	-0.0012879467
182	0xbcd05c9a	-0.02543478
183	0x36d1fa0e	6.2577956e-06
184	0xbc6a5b79	-0.014304035
185	0x3d405540	0.0469563
186	0x3cdeab37	0.027181251
187	0xbd402a96	-0.046915613
188	0x3d64b784	0.055839077
189	0xbcbb6670	-0.022875994
190	0x3d2585ed	0.040410925
191	0x3ba40956	0.0050059957
192	0x3c7128bd	0.014719185
193	0x3d3acd1d	0.045605768
194	0x3cddfb91	0.027097495
195	0xbcd7ebf0	-0.026357621
196	0xbb68d0bb	-0.0035524804
197	0xbe1e48f3	-0.15457515
198	0x3d0e3a17	0.034723368
199	0xbde2e5d3	-0.11078992
200	0x3ca91830	0.020641416
201	0xbdbace78	-0.09121412
202	0xbd1d2b63	-0.038371455
203	0x3b4f5470	0.0031636022
204	0xbd2768d8	-0.04087147
205	0x3c0c148a	0.008549819
206	0x3cf82ea4	0.030295677
207	0x3d8987ce	0.06715356
208	0xbc565bcd	-0.01308341
209	0xbd4acf6b	-0.049514215
210	0x3b7cf0a4	0.0038595581
211	0x3d2c5a2a	0.042078175
212	0x3b634271	0.0034677053
213	0x3cd1c242	0.025605325
214	0xbc947768	-0.018123344
215	0xbc2e00e9	-0.010620334
216	0xbd24c0c2	-0.04022289
217	0x3cac4479	0.021028744
218	0x3d025e3b	0.031828146
219	0x3d3a3628	0.045461804
220	0x3ccb14e3	0.024790233
221	0xbc8af7d7	-0.016963882
222	0xbc871400	-0.016489029
223	0x3d8be504	0.06830791
224	0xbcd68640	-0.026187062
225	0x3c69cc2d	0.014269871
226	0xbd4c9cbd	-0.049954165
227	0xbd1338e5	-0.03594293
228	0x3d2e230a	0.042513885
229	0xbdeca3ef	-0.11554705
230	0xbc30f205	-0.010799889
231	0x3bd68335	0.006546403
232	0x3d740821	0.059578065
233	0x3cf706f7	0.030154688
234	0x3c60af3c	0.013713654
235	0xbc8d543c	-0.01725208
236	0xbb7a0598	-0.0038150307
237	0x3d3352e0	0.043780208
238	0xbd820da8	-0.06350261
239	0xbbefca08	-0.007317785
240	0x3cad8a73	0.021184182
241	0x3c46740d	0.01211263
242	0xbd3344cb	-0.043766778
243	0xbc8f20ab	-0.017471632
244	0x3d485a2e	0.048914127
245	0xbd27674d	-0.04087
246	0x3dbf6c33	0.09346809
247	0x3ce18f25	0.027534077
248	0x3c47410d	0.012161505
249	0xbd236cfe	-0.039898865
250	0x3d0e66c8	0.03476599
251	0x3e13344c	0.14375418
252	0xbdff89f9	-0.12477488
253	0xbccbd9d4	-0.024884142
254	0x3d271f1b	0.04080115
255	0xbcfe5a03	-0.03104878

fc2.bias f4 [400]
0	0x3c7ae2a6	0.015312826
1	0xbc0655a3	-0.008199128
2	0xbb9acec7	-0.004724357
3	0x3c64952d	0.013951582
4	0xbce612b7	-0.028085096
5	0xbb97018b	-0.0046083382
6	0x3b5dc679	0.0033840223
7	0xb9f95437	-0.00047555726
8	0x3d22bdf3	0.03973193
9	0x3d64ea04	0.055887237
10	0x3b769d61	0.0037630426
11	0xbc875a5f	-0.016522584
12	0xbd41494d	-0.047189046
13	0x3c0b3c33	0.008498239
14	0xbc924987	-0.017857326
15	0xbb6ec8b7	-0.0036435553
16	0x3d0ad2b1	0.033892337
17	0x3c1298ad	0.008947534
18	0x3d23117d	0.0398116
19	0xbcef6ecd	-0.029227639
20	0x3d128e09	0.035779987
21	0x3d8878bf	0.066636555
22	0x3c28d76e	0.010305269
23	0xbccbf810	-0.024898559
24	0x3cf6a6e5	0.030108878
25	0x3c77cef4	0.015125025
26	0x3b49408d	0.0030708641
27	0x3d943352	0.07236351
28	0x3d27bec7	0.040953424
29	0x3d8d38e3	0.06895616
30	0xbcf2c024	-0.029632635
31	0xbc6b3dae	-0.014357967
32	0x3d0066fb	0.03134821
33	0x3c8a5fbe	0.016891357
34	0xbcf067e5	-0.029346416
35	0x39c5edd0	0.00037751952
36	0xbd1851e8	-0.037187487
37	0xbb5537f5	-0.0032534574
38	0xbd04d1cb	-0.032426637
39	0xbc12d7cc	-0.008962583
40	0x3c70f0ff	0.014705895
41	0x3d9752aa	0.07388814
42	0xbcb7b853	-0.02242676
43	0xbceae0c5	-0.028671632
44	0xbbbc65da	-0.0057494463
45	0x3cda6538	0.026659593
46	0xbd15abcf	-0.036540803
47	0xbbdb7c50	-0.006698169
48	0xbc396d17	-0.011317513
49	0x3d6fb120	0.05851853
50	0x3c9783d7	0.018495483
51	0x3d6a212d	0.057160545
52	0x3c55a5ff	0.013040065
53	0x3d4bbb37	0.04973909
54	0xbd196046	-0.03744533
55	0xbc867c89	-0.016416805
56	0xbce4720b	-0.027886411
57	0x3b945f27	0.0045279446
58	0x3c6e83cf	0.014557793
59	0x3d88f94e	0.06688176
60	0xbcb9d83b	-0.022686115
61	0xbbdd2f76	-0.0067500426
62	0x3c8a8910	0.01691106
63	0xbc8cb502	-0.017176155
64	0x3c6995df	0.014256923
65	0x3d8a5a0f	0.067554586
66	0x3c039963	0.008032176
67	0xbcb96aa6	-0.022633862
68	0x3c3b9797	0.011449716
69	0x3cd219ad	0.025647009
70	0x3b11095f	0.002213083
71	0x3bc142ba	0.005897847
72	0x3bdde0a4	0.006771164
73	0x3d46b403	0.048511516
74	0x3d0374b5	0.032093722
75	0xbb89bc53	-0.004203358
76	0xbc4e7e5a	-0.012603367
77	0xbcc40b3b	-0.023931136
78	0x3c93e6bd	0.01805436
79	0x3d05e53c	0.032689318
80	0x3c9ec7e1	0.019382419
81	0xbca3fe7f	-0.020018814
82	0x3cdc52d4	0.026894964
83	0xbcf18860	-0.029483974
84	0xbd5d99f6	-0.054101907
85	0x3d4f86e5	0.050665755
86	0x3d25362a	0.040334858
87	0x3d4528b1	0.04813451
88	0xbd2e1098	-0.042496294
89	0xbb018819	-0.0019764958
90	0x3d323b59	0.04351363
91	0xbc16f434	-0.009213496
92	0xbc35b227	-0.011089838
93	0x3d4a343e	0.04936623
94	0xbcfb0cee	-0.030645814
95	0x3c724eae	0.0147892665
96	0xbc48778a	-0.012235532
97	0xbd45d61a	-0.048299886
98	0x3d0b7ff0	0.034057558
99	0x3cd2f44a	0.025751252
100	0x3d203f0b	0.039122622
101	0x3d373ccb	0.04473571
102	0x3d020aac	0.03174846
103	0x3d94f9d3	0.07274213
104	0xbae55da8	-0.0017499225
105	0x3d8dc93e	0.069231495
106	0xbd632904	-0.055459037
107	0x3cdde983	0.027088886
108	0x3d3951f3	0.04524417
109	0x3d2584f2	0.04040999
110	0x3d74b1e9	0.05973998
111	0xbc11b793	-0.008893865
112	0x3da45b2f	0.080252044
113	0xbcd7d32b	-0.02634581
114	0x3d2119d3	0.03933127
115	0x3d5b1052	0.05348236
116	0x3d970047	0.073731
117	0xbb2afdfd	-0.002609133
118	0x3d3112f6	0.043230973
119	0x3ce731a0	0.028221905
120	0x3cc9bcd6	0.024626177
121	0xbc599c68	-0.013281919
122	0x3a9aa926	0.0011799678
123	0x3d0eadc7	0.034833696
124	0x3c4c06c7	0.012452788
125	0x3b938955	0.0045024552
126	0xbcac0693	-0.020999229
127	0x3c11d767	0.008901454
128	0xbd07fb55	-0.033198673
129	0xbc74f35d	-0.0149506
130	0x3c025883	0.007955673
131	0x3c1cec16	0.009577772
132	0x3c808ee5	0.015693137
133	0x3cc864ce	0.02446213
134	0xbc3779dc	-0.011198487
135	0x3d4f1833	0.050560188
136	0x3cddc018	0.027069137
137	0x3c1919d2	0.009344535
138	0xbd2dae30	-0.042402446
139	0x3cb857fd	0.022502894
140	0x3c220327	0.009888447
141	0xbc44204e	-0.011970593
142	0xbc1dddde	-0.009635417
143	0xbc16d9d3	-0.009207207
144	0xbc81ea2e	-0.015858736
145	0xbc1cf2a9	-0.009579339
146	0xbcc8491c	-0.024448924
147	0xbb53a54d	-0.0032294572
148	0x3c832d3c	0.01601278
149	0xbc7163da	-0.014733279
150	0xbd048cca	-0.03236083
151	0xbd3c8b85	-0.046031494
152	0xbd597fc0	-0.053100348
153	0x3cc4d308	0.024026409
154	0x3cdc6378	0.0269029
155	0xbd219ff4	-0.039459184
156	0xbb0c2887	-0.002138646
157	0xbcbd9d77	-0.023146374
158	0xbbbfbe3c	-0.005851535
159	0x3ceecfcd	0.029151822
160	0x3b799a7a	0.003808646
161	0x3d10f422	0.035389073
162	0xbc7f3c67	-0.015578366
163	0x3c883a8d	0.016629482
164	0x3d6aa67f	0.05728769
165	0xbbfba70b	-0.007679825
166	0x3a2ce4b3	0.0006595358
167	0xbbe80a4b	-0.007081305
168	0xbc4a55d3	-0.012349564
169	0x3d8d5721	0.06901384
170	0x3d25b1c2	0.040452726
171	0x3cf8f26f	0.030389039
172	0x3d188313	0.037234377
173	0xbcab13d8	-0.020883486
174	0xbc95343c	-0.018213384
175	0x3c006234	0.007835913
176	0xbaf5c010	-0.0018749256
177	0x3ca92501	0.020647528
178	0x3d3023d4	0.04300292
179	0x3d019c26	0.031643055
180	0x3d83aef2	0.064298525
181	0xbd1d2fda	-0.038375713
182	0xbc8115c6	-0.015757453
183	0x3d874ea0	0.066067934
184	0x3c828e45	0.01593698
185	0x3d73d662	0.059530623
186	0xbc91f1f8	-0.017815575
187	0xbc0e52d8	-0.008686744
188	0xbcb71219	-0.022347497
189	0xbc2757eb	-0.010213832
190	0xbbd40fcc	-0.0064716097
191	0x3bd58343	0.0065158918
192	0x3d171f76	0.036895238
193	0xbcd16a61	-0.02556342
194	0x3da5f1a5	0.08102731
195	0x3d06c153	0.032899212
196	0x3d460832	0.04834766
197	0x3cf9a4fd	0.03047418
198	0x3d49e278	0.049288243
199	0x3d2a008f	0.04150444
200	0x3c7481da	0.014923537
201	0xbc86572d	-0.01639899
202	0x3dadd73b	0.084883176
203	0x3d400692	0.046881266
204	0xbd3ca813	-0.046058726
205	0x3aea83a2	0.0017892013
206	0xbb8aad45	-0.004232081
207	0x3d1d189e	0.038353555
208	0x3c91128a	0.017709035
209	0x3d86c5c2	0.06580688
210	0x3c826b17	0.015920205
211	0x3cd79712	0.026317153
212	0x3abd6d08	0.001445205
213	0xbc63e7e3	-0.013910267
214	0xbd4ff8b3	-0.050774287
215	0xbd36ded0	-0.044646084
216	0xbc664f57	-0.014057002
217	0x3ce3cda5	0.02780802
218	0x3cd41a08	0.025891319
219	0x3c1f9753	0.009740668
220	0xbcb125fd	-0.02162456
221	0xbc08a772	-0.008340703
222	0xbacac510	-0.0015470106
223	0x3b9b8264	0.0047457684
224	0x3d1a6da0	0.037702203
225	0xbc1f9160	-0.00973925
226	0xbcd64162	-0.026154224
227	0x3bafc89a	0.0053644897
228	0x3ca6146a	0.020273406
229	0xbcb906f2	-0.02258632
230	0x3c680367	0.014160967
231	0x3d2ff6aa	0.042959847
232	0xbbbd2432	-0.005772137
233	0x3d8d3ee4	0.06896761
234	0xbc8ca4d3	-0.017168438
235	0x3d80757d	0.06272409
236	0x3d894184	0.06701949
237	0x3d1b66f0	0.037939966
238	0xbd437328	-0.047717243
239	0x3d082b9b	0.03324471
240	0xbc939af3	-0.018018221
241	0xbc9f490b	-0.01944401
242	0xbd05775a	-0.032584526
243	0x3d184a04	0.03717996
244	0x3c8bb5ea	0.017054517
245	0xbcd541b7	-0.026032312
246	0x3c17e283	0.009270313
247	0xbacaff08	-0.0015487382
248	0xbc257d19	-0.010100626
249	0x3d96bbf9	0.07360072
250	0x3d05b10c	0.03263955
251	0x3d3339f3	0.043756437
252	0x3b12e2ef	0.0022413095
253	0xbd198c5c	-0.037487373
254	0xbd1b15c6	-0.03786256
255	0x3d2e66a6	0.042578362

fc3.weight f4 [2, 400]
0	0xbdabec90	-0.0839473
1	0x3dbe1170	0.0928067
2	0xbda597f7	-0.080856256
3	0x3de685a3	0.11255958
4	0xbb9d0c4d	-0.004792726
5	0x3d5564f2	0.052098222
6	0x3dfa5ec5	0.12225107
7	0xbc003ce5	-0.007827018
8	0xbdd3b759	-0.10337705
9	0x3d639fc2	0.05557228
10	0xbd847413	-0.06467452
11	0xbd8b7975	-0.068102755
12	0xbd9c086d	-0.076187946
13	0xbdc54e69	-0.09634096
14	0xbda22e51	-0.079189904
15	0x3d6b770c	0.05748658
16	0xbd97c678	-0.07410902
17	0xbdb680ed	-0.089113094
18	0xbccd8329	-0.025086956
19	0x3d275eaf	0.04086178
20	0x3c74b1e0	0.014934987
21	0x3d92e3d2	0.071723595
22	0x3c9e403f	0.019317744
23	0x3da865a3	0.08222511
24	0x3ddb8835	0.10719339
25	0xbc9a27a0	-0.018817723
26	0x3d85d3fd	0.06534574
27	0x3d2c62c1	0.042086367
28	0x3ce3b3e2	0.027795736
29	0x3d98fe2c	0.074703544
30	0x3d834df6	0.06411354
31	0x3dc8df19	0.098081775
32	0xbbf8abc0	-0.0075888336
33	0xbda5d2ea	-0.08096869
34	0x3c182ced	0.009288055
35	0xbd36751d	-0.04454528
36	0xbe02ad2b	-0.12761371
37	0x3db6e9c7	0.08931308
38	0x3cb5a8ab	0.022175154
39	0x3d8f11e5	0.06985835
40	0x3d8570fd	0.065156914
41	0x3da66616	0.0812494
42	0xbdf1d695	-0.118085064
43	0xbde6b712	-0.11265387
44	0x3d2ad9f7	0.041711774
45	0x3db1b352	0.08676781
46	0x3dd03aab	0.1016744
47	0xbd541b38	-0.05178377
48	0x3d36670a	0.04453186
49	0xbdadf001	-0.08493043
50	0xbd04b291	-0.032396857
51	0x3d863a02	0.06554033
52	0x3da64205	0.08118061
53	0xbd1db817	-0.03850564
54	0xbca954e0	-0.020670354
55	0xbd9f075f	-0.07765078
56	0xba8f674f	-0.0010940823
57	0xbc1fc591	-0.009751693
58	0xbd27c167	-0.040955927
59	0x395fb2be	0.00021333524
60	0xbbc67c2b	-0.0060572824
61	0xbd0dc15d	-0.034608234
62	0x3dbfa27b	0.093571626
63	0xbd90256d	-0.070383884
64	0xbdb1bb01	-0.08678246
65	0x3de559e2	0.111987844
66	0x3d9279bc	0.07152125
67	0xbdb5a1da	-0.08868761
68	0xbda1946a	-0.07889636
69	0x3d1a7f5d	0.03771912
70	0xbdc3e37c	-0.095648736
71	0xbd082997	-0.03324279
72	0xbbd985db	-0.0066382713
73	0x3d8aefb0	0.06783998
74	0x3d289413	0.04115684
75	0xbba8007e	-0.005127012
76	0x3c6e3c73	0.014540779
77	0xbd7eafe5	-0.062179465
78	0xbb055001	-0.0020341875
79	0x3df71fcd	0.120666124
80	0xbe00a3aa	-0.12562433
81	0x3c4fb1d3	0.012676674
82	0x3d9ad2c2	0.0755973
83	0x3d7bc80d	0.06147008
84	0x3cc1b570	0.023646086
85	0x3dd106e0	0.102063894
86	0xbd2b6e3a	-0.041853167
87	0x3dc3f08c	0.09567365
88	0x3bebfc27	0.0072016898
89	0xbd437b4e	-0.047725014
90	0xbdadd60c	-0.08488092
91	0x3dabab60	0.083822966
92	0x3db1c038	0.08679241
93	0x3d9d86d7	0.07691734
94	0x3cc7f08d	0.024406696
95	0x3dbcb6c0	0.09214544
96	0x3e0667b0	0.13125491
97	0x3cc70b90	0.024297506
98	0xbd01582d	-0.03157823
99	0x3e15b82f	0.14621042
100	0x3dc9ceca	0.09853895
101	0x3d8a4ada	0.06752558
102	0x3d565e1c	0.052335843
103	0x3d957fcd	0.07299767
104	0x3dd34f75	0.103178896
105	0x3d1c9051	0.03822357
106	0xbda35d7d	-0.07976816
107	0x39f3a562	0.00046471792
108	0xbca0575f	-0.019572912
109	0x3dc857f9	0.097824045
110	0x3d6b0390	0.057376444
111	0xbcaf05ca	-0.021365065
112	0x3e242a30	0.16031718
113	0x3d9d0373	0.076666735
114	0xbd70cefc	-0.058791146
115	0x3da1e64a	0.07905252
116	0x3de48879	0.111588426
117	0xbd93f3a1	-0.07224203
118	0xbd1d156d	-0.03835051
119	0x3e0112e8	0.12604868
120	0xbcf8c54d	-0.030367518
121	0x3dd90909	0.105974264
122	0x3d23eb95	0.04001959
123	0x3dd5f47d	0.10447023
124	0x3d943984	0.07237533
125	0x3e0e62ed	0.13904925
126	0xbd5461b9	-0.051851008
127	0x3df3de13	0.11907592
128	0xbd4cc917	-0.04999646
129	0xbd437963	-0.047723185
130	0x3d825d3e	0.06365441
131	0x3d6b2584	0.057408825
132	0x3c42887e	0.011873363
133	0x3d73d3be	0.059528105
134	0x3d3788be	0.044808142
135	0x3da750c4	0.08169702
136	0xbd3ad49a	-0.04561291
137	0x3dfd8cee	0.12380396
138	0xbda56b8d	-0.08077154
139	0x3e00e1de	0.12586161
140	0x3c8a9b27	0.016919686
141	0xbdde6d46	-0.10860686
142	0xbcb33b23	-0.021878785
143	0x3c31fa00	0.010862827
144	0x3db39d33	0.08770218
145	0x3d7a0600	0.06104088
146	0xbd29b72f	-0.041434463
147	0x3bc19bb3	0.0059084534
148	0x3e0c0239	0.13672723
149	0xbd18e544	-0.03732802
150	0xbdec44da	-0.1153657
151	0xbd1e2947	-0.038613584
152	0x3cb995fa	0.022654522
153	0x3d112173	0.03543229
154	0x3d6a9690	0.057272494
155	0x3b1f9a85	0.0024353575
156	0xbdcc2bdd	-0.09969304
157	0xbc1004cb	-0.008790205
158	0x3e066dab	0.13127773
159	0x3de97d76	0.11400883
160	0x3db842fd	0.08997152
161	0xbd3f90e9	-0.046769056
162	0xbc8158a0	-0.01578933
163	0x3e0169e2	0.12638047
164	0x3da1103a	0.07864423
165	0xbd069500	-0.03285694
166	0xbdb45cfe	-0.08806799
167	0xbda2f2d1	-0.0795647
168	0xbd29e103	-0.041474354
169	0x3e064ea3	0.13115935
170	0x3d785080	0.060623646
171	0x3d818e97	0.06326025
172	0x3daae351	0.083441384
173	0xbd33ebf0	-0.04392618
174	0xbde3632e	-0.111029014
175	0x3dec1de3	0.11529138
176	0x3dcd82f9	0.10034747
177	0xbd8c5592	-0.06852259
178	0x3df1dbfb	0.11809536
179	0xbc73fdbe	-0.01489204
180	0x3d5020e2	0.05081261
181	0x3c03798d	0.008024585
182	0x3a591846	0.000828151
183	0x3db799a5	0.08964852
184	0x3e03850f	0.12843727
185	0x3dd65a7a	0.10466476
186	0xbd19dc91	-0.037563864
187	0x3dd4f2a2	0.10397841
188	0x3dd1b7c7	0.10240131
189	0xbd2b86d6	-0.041876636
190	0x3da6adb9	0.08138604
191	0xbd2e4c23	-0.04255308
192	0x3dc0854c	0.09400424
193	0xbd726dc9	-0.05918673
194	0x3ddaf379	0.1069097
195	0x3dbd61d4	0.09247175
196	0xbb47ede3	-0.0030506782
197	0xbbb3e06f	-0.005489401
198	0xbc9f1520	-0.019419253
199	0x3d76e5b6	0.060277663
200	0xbce4e92d	-0.027943218
201	0x3d319213	0.043352198
202	0x3d30a898	0.043129534
203	0x3d58aa43	0.05289675
204	0xbd028447	-0.03186443
205	0xbd94b7c1	-0.07261611
206	0xbcd3ef52	-0.025870953
207	0x3dc20c9b	0.094750606
208	0x3d1f0ec3	0.038832437
209	0x3d9daf7e	0.07699488
210	0xbd463f50	-0.048400223
211	0xbd06498c	-0.032784984
212	0xbc519d67	-0.012793875
213	0xbd302ddf	-0.043012496
214	0xbc5fef67	-0.013667918
215	0xbc8f43cd	-0.017488385
216	0xbd38a126	-0.045075558
217	0x3d17c6e8	0.037054926
218	0xbd6af9c5	-0.057367105
219	0x3d21a47f	0.039463516
220	0xbce03d9b	-0.027373126
221	0x3d88e34e	0.0668398
222	0xbc3b1175	-0.011417736
223	0x3ddc36af	0.107526176
224	0x3de1bddb	0.1102254
225	0x3d27c04f	0.040954884
226	0xbd3faadc	-0.046793804
227	0xbd2f7ab8	-0.042841643
228	0xbbe1896a	-0.006882836
229	0xbe0bfec1	-0.136714
230	0x3de8cf52	0.11367668
231	0xbcd7f492	-0.026361737
232	0xbd969182	-0.07351972
233	0x3d9f248c	0.07770643
234	0xbd116029	-0.035492096
235	0x3dd7d684	0.105389625
236	0x3dc3d575	0.09562198
237	0xbcfb5a81	-0.030682804
238	0xbb8d0c29	-0.004304428
239	0x3def7aba	0.1169333
240	0x3d1627fa	0.03665922
241	0x3d926a12	0.071491376
242	0xbddb8910	-0.10719502
243	0x3debde8f	0.11517059
244	0xbb7e5eb3	-0.003881377
245	0xbcf1f810	-0.02953723
246	0xbdaf699d	-0.08565066
247	0xbe050980	-0.12991905
248	0x3d63a5ba	0.05557797
249	0x3dc2e333	0.09515991
250	0xbd10c39d	-0.0353428
251	0x3dbe1c3f	0.09282731
252	0x3db5e870	0.088822246
253	0xbdd3abcb	-0.10335501
254	0xbd5e1d1c	-0.05422698
255	0xbd1596f1	-0.036520902

fc3.bias f4 [2]
0	0x3c5db25c	0.013531294
1	0x3c80eed0	0.015738875
