dl-lab-2023-rl-master/models_cartpole/dqn_agent.pt (torch, 655015 bytes, 6 tensors)

fc1.weight f4 [400, 4]
0.1887443 -0.012686384 -1.1091423 -0.19189925 -0.254953 0.079338394 1.4265362 0.40095237
0.32043132 -0.15486026 -0.38817015 0.3255866 0.12247476 -0.31528828 -0.86521095 -0.061717033
0.00091257883 -0.013243223 1.6738764 -0.5035809 -0.44357082 0.3037686 -0.97549146 0.11977421
-0.2660534 -0.15920319 -0.42163557 -0.12752028 -0.3419252 0.1779542 -0.8424548 0.114760615
0.19937277 -0.024051944 1.5263251 -0.25757754 -0.2898082 0.15063788 1.0039281 0.22094499
0.09248264 0.2297506 -0.105756365 0.2352829 0.03386133 -0.40257412 1.7508439 0.06984946
-0.4337421 0.295935 0.70533043 0.20420334 -0.22424436 -0.14993756 -1.0022742 -0.1655481
0.38019538 -0.34838533 -1.2127073 -0.5189042 -0.5500089 -0.16013235 -0.18226424 -0.111235276
0.245634 0.04219655 -0.8179136 -0.2979184 0.26805022 0.22131172 0.3837336 0.21725664
-0.049047414 -0.017555997 -0.12379116 0.36785743 -0.21144594 0.1089669 -0.36372745 -0.17658705
0.13999297 0.17758752 1.345959 0.2689391 0.08696602 -0.34178936 -0.10398603 -0.25884113
0.17593755 -0.009536617 1.3104559 0.13684033 0.12859733 -0.34759298 -0.25504515 -0.30589342
-0.1005214 0.3650287 0.65331286 0.39022258 0.29121363 -0.29614267 1.47106 0.28288522
-0.25303558 0.03659076 0.11314021 0.046757746 -0.23884162 0.111131765 -1.212612 -0.34705868
0.31610966 0.1475084 1.1836709 0.23680049 0.17530817 -0.050121438 -0.92164063 -0.3814149
0.18200247 -0.1913289 0.09540979 0.02779188 -0.27650666 -0.27217227 -0.08735264 -0.31872898
0.018357364 0.136004 0.4761277 -0.018929392 0.13127601 0.19717143 -0.9784081 0.4622138
0.320714 0.20659205 -1.0708487 0.019575933 -0.3129091 0.21870345 -0.60448784 0.2527372
0.3314411 -0.15013614 1.0474015 -0.08731456 0.21031475 0.010899782 0.6971797 0.03633042
-0.32579848 -0.026413672 1.489942 0.080209225 0.28631285 -0.13815784 -0.41322026 0.16102184
0.2302966 -0.2575827 0.51348525 -0.4027726 -0.055002984 -0.107277416 -0.9914692 -0.29899958
-0.51203805 0.2122783 0.7039797 0.26730117 -0.011102708 0.08283651 -0.44419545 0.38786727
-0.4214311 -0.0055137803 -0.59042364 -0.060472216 0.112469636 -9.540272e-05 0.799018 -0.46639782
0.12672557 -0.405605 1.3942509 0.010529068 0.0012971968 -0.018319212 1.3758742 -1.0134254
0.21832044 0.26554564 0.9609403 0.25514805 0.25979847 0.034783434 0.6128479 -0.0049501755
-0.09706172 0.03128043 -0.52054375 -0.26076168 -0.37381703 0.03331254 -0.33563384 0.03529523
-0.1803063 -0.07825523 1.3795542 0.07865662 0.16461483 0.2565568 -0.5722837 0.100032054
0.18629976 -0.22408146 -0.10910911 -0.021494618 0.37986654 -0.01829954 -0.88585925 -0.14224263
0.29493505 0.2753101 -0.09707169 -0.27575982 0.0069308095 0.06996163 -0.7368056 0.45850992
0.31413594 0.11288738 0.37842396 0.08695405 0.09626271 0.22003718 -0.7140734 0.09271378
0.30992043 0.0317271 0.4430186 0.025465973 -0.25656736 0.2896994 0.07939148 0.5438855
-0.20870091 0.25729093 1.1082656 0.3201633 -0.081829354 -0.28055772 1.1367754 0.17508842
00000000: 3046 413e 8dda 4fbc 60f8 8dbf 3d81 44be
00000010: 3389 82be 2b7c a23d bd98 b63f a149 cd3e
00000020: 930f a43e b093 1ebe 3dbe c6be 49b3 a63e
00000030: 0cd4 fa3d 776d a1be 777e 5dbf 00cb 7cbd
00000040: 213a 6f3a 1afa 58bc 9541 d63f aeea 00bf
00000050: b71b e3be 8f87 9b3e cfb9 79bf 2e4c f53d
00000060: 2738 88be 2906 23be 9ee0 d7be ad94 02be
00000070: d210 afbe a039 363e 1eab 57bf 9d07 eb3d
00000080: 6028 4c3e 9508 c5bc 9f5e c33f 34e1 83be
00000090: be61 94be d140 1a3e b780 803f 673f 623e
000000a0: 8a67 bd3d be43 6b3e cb96 d8bd 00ee 703e
000000b0: 2eb2 0a3d 321e cebe a71b e03f 3c0d 8f3d
000000c0: 7213 debe cb84 973e 8990 343f ae1a 513e
000000d0: 50a0 65be 3b89 19be 854a 80bf 7185 29be
000000e0: f8a8 c23e 905f b2be fe39 9bbf e8d6 04bf
000000f0: 62cd 0cbf bcf9 23be 7aa3 3abe 52cf e3bd
00000100: 7b87 7b3e 4ad6 2c3d c962 51bf c388 98be
00000110: e13d 893e 8a9f 623e bb78 c43e 8678 5e3e
00000120: f1e5 48bd 98d1 8fbc 3886 fdbd cf57 bc3e
00000130: 4985 58be 0a2a df3d 7c3a babe 3cd3 34be
00000140: 515a 0f3e 81d9 353e 6248 ac3f 63b2 893e
00000150: 3e1b b23d 04ff aebe a1f6 d4bd d386 84be
00000160: f928 343e 793f 1cbc 05bd a73f df1f 0c3e
00000170: 05af 033e b5f7 b1be 4795 82be 109e 9cbe
00000180: 2ade cdbd 0be5 ba3e 833f 273f 41cb c73e
00000190: f419 953e 03a0 97be b24b bc3f 55d6 903e
000001a0: e18d 81be 31e0 153d 0eb6 e73d 0d85 3f3d
000001b0: e692 74be 0d99 e33d df36 9bbf adb1 b1be
000001c0: 20d9 a13e 710c 173e 8782 973f d47b 723e
000001d0: fc83 333e 234c 4dbd a4f0 6bbf d048 c3be
000001e0: db5e 3a3e b9eb 43be 3566 c33d ccab e33c
000001f0: 4892 8dbe 2a5a 8bbe f1e5 b2bd 7230 a3be
00000200: 2f62 963c a244 0b3e 03c7 f33e d011 9bbc
00000210: 386d 063e 4fe7 493e f478 7abf 4aa7 ec3e
00000220: a034 a43e de8c 533e 9211 89bf b55d a03c
00000230: 9f35 a0be ccf3 5f3e b7bf 1abf c566 813e
00000240: a6b2 a93e 4abd 19be 4111 863f fad1 b2bd
00000250: c05c 573e 0095 323c 5e7a 323f 35cf 143d
00000260: 0fcf a6be 7c61 d8bc 6bb6 be3f bc44 a43d
00000270: 9997 923e 4079 0dbe 9b91 d3be e9e2 243e
00000280: dfd2 6b3e e1e1 83be c573 033f 3638 cebe
00000290: cf4a 61bd 43b4 dbbd edd0 7dbf 7916 99be
000002a0: ed14 03bf 7c5f 593e 0338 343f b3db 883e
000002b0: 22e8 35bc 30a6 a93d 966d e3be 8a96 c63e
000002c0: d1c5 d7be f1ac b4bb 0126 17bf b7b1 77bd
000002d0: 7b56 e63d f212 c8b8 728c 4c3f b2cb eebe
000002e0: 59c4 013e 75ab cfbe d076 b23f 1d82 2c3c
000002f0: b406 aa3a 2c12 96bc a51c b03f ecb7 81bf
00000300: 658f 5f3e 99f5 873e 2f00 763f c4a2 823e
00000310: 4e04 853e 1379 0e3d 9ae3 1c3f 1535 a2bb
00000320: 4cc8 c6bd e81f 003d 5b42 05bf 8e82 85be
00000330: f264 bfbe bb72 083d 33d8 abbe bb91 103d
00000340: 37a2 38be 4744 a0bd 3b95 b03f b916 a13d
00000350: ca90 283e 6a5b 833e 2f81 12bf 9bdd cc3d
00000360: 5dc5 3e3e 9c75 65be 9974 dfbd 7b15 b0bc
00000370: de7d c23e ebe8 95bc acc7 62bf 0da8 11be
00000380: ba01 973e 72f5 8c3e 86cd c6bd 6430 8dbe
00000390: d81b e33b 0b48 8f3d 4b9f 3cbf d0c1 ea3e
000003a0: 6dd6 a03e 8031 e73d c9c0 c13e f714 b23d
000003b0: 6225 c53d 6d51 613e 84cd 36bf b9e0 bd3d
000003c0: e4ad 9e3e 47f4 013d 55d3 e23e 049e d03c
000003d0: cc5c 83be 7b53 943e 0098 a23d 153c 0b3f
000003e0: b1b5 55be a3bb 833e a6db 8d3f 72ec a33e
000003f0: 2696 a7bd 43a5 8fbe db81 913f 614a 333e

fc1.bias f4 [400]
0.20936112 -0.0425068 0.09951227 -0.050335255 0.32509497 0.3084193 -0.5986247 0.22667661
0.3329297 0.14358382 -0.28864595 -0.47123626 -0.11217722 0.546485 -0.3675805 0.30338302
-0.5637313 -0.13731219 -0.045766994 0.5928545 0.5744983 0.12340066 0.0778704 0.24107233
0.38934153 -0.13566524 -0.4944062 -0.2812379 -0.5294401 -0.4439581 0.5013588 0.1492741
0.30776072 0.2067336 0.34058022 0.12454548 -0.1066919 -0.31499705 -0.3655092 0.26273084
0.14262454 0.6458244 -0.27746913 0.14012511 0.28719553 -0.45692438 -0.30413046 0.12600335
0.26597947 -0.34767872 0.2917329 -0.7593734 0.39650005 0.29676047 -0.08040833 -0.5138392
-0.18752536 0.0075599435 -0.66131186 0.20922184 -0.6407768 -0.39815655 0.5777946 -0.63432336
0.5076095 -0.24305409 -0.53040516 -0.7527065 0.37840486 -0.25560817 -0.050533496 -0.4948481
-0.5222456 -0.13582611 0.4667867 -0.094750874 0.24576402 0.36417112 -0.1597868 -0.54484606
0.2820836 0.22868107 0.4207656 -0.37867776 0.5974093 -0.37489465 0.17308317 -0.32702202
-0.17079942 -0.1347625 0.32793945 -0.29505545 -0.28051168 -0.01575294 0.5069664 -0.72981197
-0.6977175 -0.2843506 -0.3996409 0.5772159 -0.6131357 -0.33825544 -0.5471999 -0.33256876
-0.43636224 -0.006813984 -0.39002293 -0.061654504 -0.38733694 0.07485994 0.44501933 0.07814423
0.1724405 0.43800193 -0.19645627 -0.66460496 0.38311064 0.121454515 -0.010632115 -0.39904696
-0.25031763 -0.559313 0.5124087 -0.41751018 0.18091434 -0.09858999 -0.6026435 0.38999712
-0.6436187 -0.1794639 0.4870173 -0.4141465 -0.39890268 -0.56828934 -0.3832186 -0.5592778
0.39668307 0.12833236 -0.50001764 -0.5889233 -0.3731221 0.51899034 -0.752174 0.25301224
0.07521036 -0.3007379 -0.23451361 -0.29170343 0.022886198 -0.3805553 -0.29184633 -0.020708535
-0.043959163 0.4085129 0.35893545 -0.8481264 0.27583367 0.0961911 0.22877707 -0.41298965
-0.06276201 -0.24035925 -0.5275639 -0.72449183 0.31970602 -0.5433902 -0.09616909 0.2213709
-0.098608375 -0.21853286 -0.18968123 0.37019467 -0.0014147364 0.3493196 -0.6538241 -0.011667575
0.08434498 0.6034169 -0.380414 0.5964187 -0.25492427 -0.4293192 -0.61719215 -0.22686976
-0.36993223 -0.4932196 -0.23528433 0.36541265 -0.47442755 -0.011223251 0.20691054 -0.2798183
0.3061722 -0.40546665 -0.0883343 0.35192782 -0.5816861 0.44774222 -0.48811492 0.5003696
-0.5134209 0.52442545 0.26385114 0.009075335 0.20682308 -0.30344206 0.01160393 0.27090517
-0.27888554 0.2683102 0.04067447 0.11543902 -0.42324018 -0.46110612 -0.63604903 -0.22104424
-0.32458618 0.32695934 -0.3908293 -0.15491201 0.2581092 -0.32992753 0.24687585 -0.12523407
-0.07679859 0.12897122 -0.41989887 -0.4076945 -0.33650455 0.49573913 0.25000426 -0.12160063
0.34732896 -0.44343778 0.39519745 -0.27145445 0.25973496 -0.29317042 -0.37896198 0.4059116
-0.067608096 0.042511124 -0.23996381 -0.62883216 -0.5847765 0.0021644249 -0.53407526 -0.29041353
0.34707022 -0.42234993 -0.41434076 -0.23557715 -0.12668346 0.07387707 0.3750544 -0.061425384
00000000: c362 563e 9c1b 2ebd 17cd cb3d 572c 4ebd
00000010: d972 a63e 22e9 9d3e 783f 19bf ea1d 683e
00000020: c375 aa3e a307 133e 67c9 93be e145 f1be
00000030: 2cbd e5bd 71e6 0b3f 8333 bcbe 0555 9b3e
00000040: b250 10bf 919b 0cbe 2c76 3bbd 50c5 173f
00000050: 5212 133f 7cb9 fc3d 847a 9f3d aadb 763e
00000060: c657 c73e d4eb 0abe cf22 fdbe 6afe 8fbe
00000070: 6389 07bf 7a4e e3be 0d59 003f 4fdb 183e
00000080: d092 9d3e f9b1 533e 8860 ae3e b311 ff3d
00000090: 4881 dabd 4b47 a1be 0624 bbbe a884 863e
000000a0: 2b0c 123e bf54 253f 6f10 8ebe f57c 0f3e
000000b0: 4b0b 933e fef1 e9be fdb6 9bbe 0607 013e
000000c0: 762e 883e f202 b2be 045e 953e 4c66 42bf
000000d0: 0e02 cb3e fdf0 973e 1fad a4bd f78a 03bf
000000e0: a606 40be 67b9 f73b bc4b 29bf 403e 563e
000000f0: f309 24bf 2ddb cbbe 59ea 133f 0463 22bf
00000100: b2f2 013f 2ce3 78be a2c8 07bf 60b1 40bf
00000110: 48be c13e 13df 82be 36fc 4ebd bb5c fdbe
00000120: e3b1 05bf 0016 0bbe abfe ee3e bf0c c2bd
00000130: 90a9 7b3e a374 ba3e 279f 23be 087b 0bbf
00000140: 436d 903e 5f2b 6a3e 976e d73e 0de2 c1be
00000150: d1ef 183f 31f2 bfbe b73c 313e 6e6f a7be
00000160: 0be6 2ebe 2eff 09be aee7 a73e 8211 97be
00000170: 3a9f 8fbe 4f0c 81bc 8dc8 013f f5d4 3abf
00000180: 9d9d 32bf 6796 91be bb9d ccbe 6cc4 133f
00000190: 76f6 1cbf d12f adbe 4b15 0cbf 7446 aabe
000001a0: df6a dfbe d747 dfbb 16b1 c7be 6f89 7cbd
000001b0: 0751 c6be 2b50 993d 93d9 e33e 150a a03d
000001c0: 3e94 303e ca41 e03e d52b 49be 8d23 2abf
000001d0: 1427 c43e 25bd f83d 5332 2ebc e24f ccbe
000001e0: a229 80be 232f 0fbf 372d 033f e5c3 d5be
000001f0: 9c41 393e 8ce9 c9bd d846 1abf b4ad c73e
00000200: 32c4 24bf 62c5 37be 555a f93e 030b d4be
00000210: f93c ccbe 697b 11bf 3a35 c4be d42c 0fbf
00000220: 0b1a cb3e 8f69 033e 2801 00bf adc3 16bf
00000230: dc09 bfbe 8ddc 043f 7a8e 40bf d28a 813e
00000240: e407 9a3d 51fa 99be 5624 70be 275a 95be
00000250: d67b bb3c 25d8 c2be e26c 95be f2a4 a9bc
00000260: 860e 34bd 9a28 d13e 63c6 b73e d01e 59bf
00000270: 123a 8d3e d7ff c43d 8944 6a3e 6173 d3be
00000280: 5e89 80bd bc20 76be 6e0e 07bf 4c78 39bf
00000290: 82b0 a33e 9f1b 0bbf 4df4 c4bd 0eaf 623e
000002a0: 30f3 c9bd 14c7 5fbe cc3b 42be 288a bd3e
000002b0: ad6e b9ba 05da b23e 0461 27bf 5b29 3fbc
000002c0: 10bd ac3d 8879 1a3f a0c5 c2be e5ae 183f
000002d0: 6f85 82be bacf dbbe 4e00 1ebf 8c50 68be
000002e0: c267 bdbe 4887 fcbe 60ee 70be 5e17 bb3e
000002f0: 2be8 f2be bae1 37bc 5be0 533e 5844 8fbe
00000300: 9ac2 9c3e 5399 cfbe 9de8 b4bd e22f b43e
00000310: 61e9 14bf 783e e53e 33ea f9be 3918 003f
00000320: 8d6f 03bf bf40 063f 7f17 873e b7b0 143c
00000330: 6ec9 533e c25c 9bbe 691e 3e3c 15b4 8a3e
00000340: 16ca 8ebe f45f 893e 469a 263d 4b6b ec3d
00000350: f0b2 d8be 1a16 ecbe 1cd4 22bf 6c59 62be
00000360: 2930 a6be 3767 a73e c71a c8be 41a1 1ebe
00000370: e426 843e 43ec a8be 06cd 7c3e 5c3d 00be
00000380: 9448 9dbd 0811 043e fcfc d6be 55bd d0be
00000390: 534a acbe 85d1 fd3e 8f00 803e c009 f9bd
000003a0: 1ad5 b13e 470a e3be 5257 ca3e 14fc 8abe
000003b0: fbfb 843e 6f1a 96be 4e07 c2be a5d3 cf3e
000003c0: 1d76 8abd 2520 2e3d 13b9 75be 25fb 20bf
000003d0: eab3 15bf 06d9 0d3b 28b9 08bf 15b1 94be
000003e0: 30b3 b13e 403e d8be 7924 d4be 233b 71be
000003f0: 4fb9 01be dc4c 973d 2107 c03e 2f99 7bbd

fc2.weight f4 [400, 400]
-0.0527919 0.042191874 0.03494791 -0.04989945 -0.04553636 0.0025487295 -0.0048435177 -0.019074017
-0.0355747 -0.028332993 0.0024253489 -0.037398934 0.011597708 0.018747136 -0.0034858943 -0.034573358
-0.01706319 0.03507952 -0.034838077 -0.025754556 -0.04523453 0.0031141639 -0.01410181 0.02149918
-0.016797047 -0.040192176 0.025721306 -0.016875902 0.04882571 -0.0027240992 -0.007333887 -0.002608492
0.00669861 0.04908924 -0.026999528 0.03520326 -0.009943175 0.019586964 0.02780528 0.04521037
-0.028848175 0.02693871 0.034552537 -0.018943403 -0.019607449 -0.009292121 -0.03937384 0.004648371
0.036267884 -0.02011909 0.014647168 0.026942827 -0.042869724 -0.03117981 -0.047026105 0.020670021
-0.018315721 -0.046479326 0.01643452 0.049358796 -0.015697885 0.0008416211 -0.010679184 -0.033930775
0.017268838 0.005141404 0.017743563 -0.032160312 -0.007934205 -0.009714693 -0.00875862 -0.00898973
0.029829485 -0.042827707 0.029085128 -0.023408217 -0.04049151 -0.013094683 -0.040015068 0.02962172
0.024180181 -0.03701479 0.03630484 0.0063540875 0.037386943 -0.047143698 0.025085533 -0.02929734
0.011003103 -0.0071309633 -0.022148151 0.03292316 0.035029903 -0.02638395 -0.013362098 0.007144373
0.0047279955 0.044190075 1.5925982e-05 -0.021379333 0.013625366 -0.008636624 0.006837833 0.02199396
0.0009532422 0.021243569 -0.011273776 0.036722984 -0.027716536 -0.010470809 -0.00478103 -0.03344742
-0.028634423 -0.013655837 -0.04655096 -0.04226319 0.021850957 -0.050402418 -0.039389778 0.04900831
-0.019818692 0.049944825 -0.048737235 0.037399825 0.008251792 -0.03750671 -0.03125274 -0.00057955383
0.022734698 -0.049715724 0.013980574 -0.049634375 -0.0037747442 -0.003949517 0.020692015 -0.014222485
-0.043010853 0.04519741 0.04913469 0.020467097 -0.052018207 -0.026983587 0.038029514 0.030869551
0.017017534 0.04068038 -0.010449256 -0.029081369 0.030252773 0.010068029 -0.029080546 -0.047469366
-0.0329974 -0.014200276 -0.0076773763 0.007804477 -0.04483816 -0.013630474 -0.007834392 -0.004912108
-0.04500436 0.020856274 0.024786869 -0.03219018 -0.020654539 0.026228301 0.01611339 -0.0077103423
0.02883804 0.035247765 -0.034840763 -0.0037726173 -0.014889866 -0.0046213204 -0.04287831 -0.00973751
-0.024965985 0.02573249 -0.01653016 0.022279719 0.043372866 0.033357285 0.034768563 -0.012832284
0.01303192 0.044405114 0.039876737 -0.046025578 -0.013757181 0.020721484 0.03964876 0.036730863
-0.055764314 0.012267507 0.04248897 -0.0012456401 0.025597172 0.010801896 -0.03171158 -0.030171018
-0.045314938 -0.05451969 0.017475825 -0.0071869255 0.023384143 -0.010456962 -0.025864048 -0.026545731
0.0335562 -0.035402603 -0.04192439 -0.028434634 0.027952654 -0.019784344 -0.045228034 -0.0030172134
0.004073647 -0.029811967 -0.0088105025 0.026861038 0.042238604 0.041181274 -0.050019227 0.009033008
-0.04921166 -0.034564447 -0.04038886 -0.011432451 0.02794003 -0.010329859 -0.040846497 -0.035186585
-0.01317204 -0.014027512 0.02627911 -0.019642739 0.024260323 -0.044708945 0.005257802 -0.031067617
-0.03227615 -0.0046267 0.024984712 0.022226274 0.04760317 0.039963882 0.0007582605 -0.016915996
0.0070421216 0.03546648 0.027555307 -0.03700266 -0.005131644 0.019416299 0.04230537 -0.03115502
00000000: 523c 58bd 63d1 2c3d 8a25 0f3d 5e63 4cbd
00000010: 5684 3abd 9608 273b 5fb6 9ebb 1d41 9cbc
00000020: c7b6 11bd 981a e8bc 9af2 1e3b a02f 19bd
00000030: 5004 3e3c 9893 993c 9a73 64bb cb9c 0dbd
00000040: 1ac8 8bbc 8baf 0f3d 5fb2 0ebd 38fb d2bc
00000050: d847 39bd 0017 4c3b 470b 67bc 0c1f b03c
00000060: f699 89bc 8da0 24bd 7db5 d23c 553f 8abc
00000070: 78fd 473d cd86 32bb 1a51 f0bb 3cf3 2abb
00000080: 0380 db3b cd11 493d 1d2e ddbc 4b31 103d
00000090: b3e8 22bc d774 a03c e6c7 e33c 822e 393d
000000a0: 0253 ecbc 92ae dc3c f686 0d3d 322f 9bbc
000000b0: cd9f a0bc fb3d 18bc 7746 21bd 5d51 983b
000000c0: a28d 143d cad0 a4bc adfa 6f3c 34b7 dc3c
000000d0: 2a98 2fbd cd6c ffbc 729e 40bd 2d54 a93c
000000e0: da0a 96bc 1b61 3ebd b0a1 863c 732c 4a3d
000000f0: da98 80bc 3ca0 5c3a bff7 2ebc fffa 0abd
00000100: 6177 8d3c 3979 a83b f35a 913c 88ba 03bd
00000110: 78fe 01bc 602a 1fbc 5180 0fbc a949 13bc
00000120: f75c f43c 1b6c 2fbd ef43 ee3c 97c2 bfbc
00000130: 6dda 25bd 158b 56bc d7e6 23bd 40a9 f23c
00000140: 8415 c63c d29c 17bd 62b4 143d f335 d03b
00000150: 0d23 193d c019 41bd 2d80 cd3c fa00 f0bc
00000160: 5c46 343c dbaa e9bb 0a70 b5bc 6fda 063d
00000170: 847b 0f3d 2723 d8bc b3ec 5abc 581b ea3b
00000180: 4ded 9a3b a700 353d c998 8537 b623 afbc
00000190: ed3c 5f3c a080 0dbc e70f e03b ad2c b43c
000001a0: 00e3 793a fe06 ae3c a5b5 38bc d76a 163d
000001b0: ca0d e3bc c28d 2bbc 30aa 9cbb 2900 09bd
000001c0: bd92 eabc bbbc 5fbc 38ac 3ebd 2b1c 2dbd
000001d0: c700 b33c c472 4ebd 2d57 21bd f0bc 483d
000001e0: cf5a a2bc f292 4c3d b2a0 47bd 8f30 193d
000001f0: 8632 073c a3a0 19bd e002 00bd 33ed 17ba
00000200: 1e3e ba3c b7a2 4bbd c70e 653c 6a4d 4bbd
00000210: b361 77bb f36a 81bb 4d82 a93c 6d05 69bc
00000220: 262c 30bd eb20 393d 7541 493d 9daa a73c
00000230: 0b11 55bd af0c ddbc d6c4 1b3d 24e2 fc3c
00000240: 5b68 8b3c 78a0 263d 5b33 2bbc 0d3c eebc
00000250: aad4 f73c 60f4 243c 533a eebc 3d6f 42bd
00000260: 4828 07bd 46a8 68bc 8092 fbbb b3bc ff3b
00000270: 38a8 37bd 5a52 5fbc d25b 00bc c0f5 a0bb
00000280: 7e56 38bd c7da aa3c d50d cb3c dad9 03bd
00000290: b533 a9bc bcdc d63c 3a00 843c 0aa7 fcbb
000002a0: c13d ec3c f65f 103d 30b5 0ebd 043e 77bb
000002b0: a0f4 73bc 726e 97bb 2ba1 2fbd 148a 1fbc
000002c0: 7785 ccbc f1cc d23c 426a 87bc f583 b63c
000002d0: bfa7 313d a6a1 083d 7b69 0e3d 803e 52bc
000002e0: d683 553c 23e2 353d ca55 233d 5185 3cbd
000002f0: cd65 61bc 1ac0 a93c bd66 223d 1a73 163d
00000300: 1f69 64bd a7fd 483c ea08 2e3d bf44 a3ba
00000310: 29b1 d13c 70fa 303c 00e4 01bd 3629 f7bc
00000320: 289c 39bd 0a50 5fbd 7629 8f3c 4d80 ebbb
00000330: 1a90 bf3c ad53 2bbc d7e0 d3bc 6f76 d9bc
00000340: 3a72 093d 5202 11bd e9b8 2bbd c0ef e8bc
00000350: f7fc e43c c712 a2bc 0841 39bd 71bc 45bb
00000360: 3a7c 853b 3a38 f4bc ed59 10bc ae0b dc3c
00000370: 6302 2d3d b2ad 283d f6e0 4cbd 2eff 133c
00000380: 2a92 49bd 7393 0dbd ca6e 25bd 2d4f 3bbc
00000390: 7de2 e43c 923e 29bc a84e 27bd cf1f 10bd
000003a0: 8acf 57bc a6d3 65bc 4a47 d73c cfe9 a0bc
000003b0: 96bd c63c ba20 37bd a449 ac3b 8481 febc
000003c0: ff33 04bd 939b 97bb bdac cc3c e013 b63c
000003d0: 8bfb 423d 2bb1 233d 00c6 463a 6a93 8abc
000003e0: 99c1 e63b 4d45 113d abbb e13c 1a90 17bd
000003f0: 5a27 a8bb ee0e 9f3c 6548 2d3d d038 ffbc

fc2.bias f4 [400]
0.03764908 0.04722671 -0.090905316 0.10902015 -0.054449294 0.04342599 0.04326039 -0.049184494
0.050848037 -0.046276756 0.064278804 0.029725213 -0.021932827 0.034664974 -0.030911515 -0.020954175
-0.01233366 0.13426726 -0.02621824 -0.015921999 -0.050066493 -0.1794711 0.08292635 0.010011696
0.08388717 0.0120655 0.03664328 -0.009980539 0.119573094 0.009757513 0.0074374815 0.071186155
-0.069723785 0.06480182 0.111059904 -0.010996771 0.088168755 0.00029453923 -0.087091364 0.0030968583
-0.010462489 0.069463365 0.063347116 -0.06853652 -0.15017326 -0.013525342 0.007291827 0.012890565
0.010707837 0.017301215 0.050258923 0.030975124 0.13303854 0.03787278 -0.012687809 -0.016924305
-0.04884436 0.069513604 -0.0467919 0.035974097 0.015340763 0.116746195 0.07453338 0.0955935
-0.039490193 -0.056207195 -0.09007689 0.089414604 -0.036307275 0.000670206 0.063282594 -0.11640564
-0.0043157395 0.102840364 -0.025461242 0.04057316 -0.01882642 0.09614356 -0.02199109 -0.21806629
-0.01455091 -0.028815128 0.10198214 -0.04358645 -0.13679217 0.1120613 0.11292427 -0.053075593
-0.008561494 -0.05219866 0.039980907 0.08666793 0.020230127 0.1092719 0.09234207 0.050200637
0.11642091 -0.051431388 0.016384944 -0.06511654 0.0983696 -0.041059155 0.04291899 0.119264044
-0.015882831 0.12277121 0.06864295 -0.036814515 0.03016959 0.03773276 -0.0140663935 -0.069920704
0.08547044 -0.04948533 0.058663122 0.10371717 -0.16044168 0.011726584 -0.10602463 -0.04688431
0.103809625 -0.00062187336 -0.03461266 -0.020364907 -0.023581894 0.007948145 -0.016594445 0.09580987
0.06852498 -0.007760238 0.076353006 0.08635022 0.036771856 0.028084682 -0.01499813 0.0038750614
-0.08553491 -0.062181514 0.04049615 0.10882455 0.079576835 0.037901133 0.008934181 -0.00718204
0.02076704 -0.12566665 0.028490985 -0.00810625 -0.040329 0.0033429319 0.055806465 -0.20257899
-0.0028761488 0.016213456 0.035720833 0.09301704 -0.10442899 0.07721056 0.047584694 0.082427755
-0.04056454 0.05870398 0.086074136 0.018612508 0.12142634 0.059143454 0.07030017 0.12255309
0.055219106 0.06535416 0.08675299 -0.0063967477 -0.035850585 -0.0372644 -0.04374227 0.010989631
0.0650959 -0.21949105 0.021814486 0.123425335 -0.20835185 0.025907945 0.010283864 -0.07160826
0.001601028 0.06624644 -0.0353398 -0.17964852 0.101274714 0.0098784 0.017068539 0.06718869
-0.0463631 0.081624195 0.06344237 0.030420776 -0.008845767 0.11536697 -0.010424462 0.064611115
-0.08601275 0.12802714 -0.01954596 0.05643707 0.008133003 -0.012888968 -0.056262225 -0.020677516
0.0030741899 0.060184218 0.04596295 -0.062262207 -0.012160344 0.028029107 -0.1929504 -0.15910636
-0.17236584 0.039581273 -0.16674823 0.054457124 0.009961626 -0.038527537 -0.22657241 0.077985846
-0.031946346 0.1166182 -0.005815747 0.0031238075 0.049457904 0.015623265 -0.103566505 -0.0002096343
-0.05043628 0.12878498 0.08889155 0.10197883 -0.027933622 -0.057852615 0.015712077 -0.01659744
0.10636033 -0.040743604 0.088242255 -0.08616788 0.02283628 -0.048805367 -0.06461413 0.10162368
-0.038214907 0.051447075 0.030347228 -0.061505925 -0.09275938 -0.045270585 -0.124989346 0.08002726
00000000: ec35 1a3d cb70 413d 912c babd f545 df3d
00000010: 3906 5fbd 73df 313d cf31 313d ae75 49bd
00000020: 0846 503d b28c 3dbd 9ba4 833d 4a82 f33c
00000030: 79ac b3bc dcfc 0d3d 253a fdbc 17a8 abbc
00000040: 1f13 4abc 5b7d 093e a2c7 d6bc da6e 82bc
00000050: 8612 4dbd 46c7 37be 4ad5 a93d 1908 243c
00000060: 09cd ab3d 60ae 453c 4417 163d 6a85 23bc
00000070: bde2 f43d fadd 1f3c 1eb6 f33b 0cca 913d
00000080: 58cb 8ebd d1b6 843d 6073 e33d cd2b 34bc
00000090: d291 b43d 636c 9a39 f55c b2bd a9f4 4a3b
000000a0: dc6a 2bbc cf42 8e3d 22bc 813d e05c 8cbd
000000b0: 05c7 19be 6599 5dbc 47f0 ee3b f332 533c
000000c0: ec6f 2f3c 47bb 8d3c 4ddc 4d3d 8bbf fd3c
000000d0: 413b 083e 7d20 1b3d 87e0 4fbc d7a4 8abc
000000e0: 0611 48bd 265d 8e3d dda8 3fbd 9359 133d
000000f0: d357 7b3c a118 ef3d f5a4 983d 86c6 c33d
00000100: 78c0 21bd 8439 66bd 3c7a b8bd 011f b73d
00000110: f0b6 14bd c3b0 2f3a 4e9a 813d 1566 eebd
00000120: 0c6b 8dbb f89d d23d 1894 d0bc 0b30 263d
00000130: dd39 9abc eae6 c43d a926 b4bc c54c 5fbe
00000140: f166 6ebc b40d ecbc 03dc d03d b587 32bd
00000150: 3f13 0cbe 6580 e53d d744 e73d cb65 59bd
00000160: 8245 0cbc 43ce 55bd 05c3 233d f57e b13d
00000170: a7b9 a53c f2c9 df3d d71d bd3d 2f9f 4d3d
00000180: 166e ee3d b8a9 52bd b839 863c d25b 85bd
00000190: 0076 c93d a52d 28bd d3cb 2f3d b540 f43d
000001a0: b61c 82bc 796f fb3d ad94 8c3d d1ca 16bd
000001b0: 3726 f73c ab8d 1a3d bb76 66bc 9632 8fbd
000001c0: 200b af3d 21b1 4abd be48 703d ab69 d43d
000001d0: d34a 24be dc20 403c 7123 d9bd c309 40bd
000001e0: 249a d43d 3705 23ba 01c6 0dbd 4ed4 a6bc
000001f0: d12e c1bc f038 023c 13f1 87bc f737 c43d
00000200: d356 8c3d 9849 febb f75e 9c3d 62d8 b03d
00000210: 169e 163d d911 e63c b7ba 75bc bef4 7d3b
00000220: ed2c afbd 0bb2 7ebd 4adf 253d 68df de3d
00000230: 2ef9 a23d 383e 1b3d ac60 123c 5157 ebbb
00000240: a41f aa3c c2ae 00be ed65 e93c 14d0 04bc
00000250: 0630 25bd 1715 5b3b 5295 643d de70 4fbe
00000260: c57d 3cbb 15d2 843c 0250 123d b87f be3d
00000270: dede d5bd 9220 9e3d 2be8 423d e2cf a83d
00000280: 0127 26bd 9673 703d a347 b03d 4279 983c
00000290: 5fae f83d 6840 723d 89f9 8f3d 1dfd fa3d
000002a0: 6e2d 623d 67d8 853d 8dab b13d cf9b d1bb
000002b0: 10d8 12bd 8ea2 18bd 182b 33bd da0d 343c
000002c0: 0051 853d 43c2 60be 4bb4 b23c 6cc6 fc3d
000002d0: 305a 55be e63c d43c a77d 283c 5aa7 92bd
000002e0: 96d9 d13a 37ac 873d 77c0 10bd c8f5 37be
000002f0: 1e69 cf3d 03d9 213c 52d3 8b3c 399a 893d
00000300: 3ce7 3dbd 962a a73d 13ee 813d fe34 f93c
00000310: d6ed 10bc 8545 ec3d 5dcb 2abc d552 843d
00000320: 7427 b0bd 8c19 033e d91e a0bc 8f2a 673d
00000330: 4940 053c 402c 53bc 3873 66bd e563 a9bc
00000340: 5978 493b ba83 763d a543 3c3d a806 7fbd
00000350: 2e3c 47bc 4c9d e53c ca94 45be c7ec 22be
00000360: ac80 30be f91f 223d 0cc0 2abe 6f0e 5f3d
00000370: 1636 233c 0dcf 1dbd 9902 68be 0bb7 9f3d
00000380: 2cda 02bd 86d5 ee3d 0692 bebb cbb8 4c3b
00000390: 5f94 4a3d b9f8 7f3c ad1a d4bd 47d1 5bb9
000003a0: 4696 4ebd 36e0 033e c60c b63d 47da d03d
000003b0: 0dd5 e4bc ddf6 6cbd 9db6 803c 5bf7 87bc
000003c0: 72d3 d93d c4e2 26bd 5bb8 b43d c978 b0bd
000003d0: 2613 bb3c 23e8 47bd 6a54 84bd 1320 d03d
000003e0: 3c87 1cbd 2bba 523d c09a f83c a3ed 7bbd
000003f0: a1f8 bdbd a66d 39bd 6afa ffbd 55e5 a33d

fc3.weight f4 [2, 400]
0.019144006 0.0042809667 0.47792226 0.02970642 0.020447224 0.12781808 -0.0018053771 -0.015725302
-0.0022309173 0.034653783 0.3898858 -0.011906132 -0.001987899 -0.057161592 -0.035650592 -0.012123969
-2.509772 0.33958793 0.003679058 -0.0066133207 0.037019942 -0.6219356 0.9665852 0.26586762
0.50137913 0.043163836 0.466537 -1.411201 0.10166951 0.005434637 -0.007930355 0.030121522
-0.074226834 0.08166651 0.046433765 -0.0696791 0.44656986 -0.0009573491 -0.44893414 0.023462638
0.08980816 0.09504511 0.26330116 -2.8834295 -0.48096922 -0.032900073 -0.0039001508 0.054568276
-0.010258983 0.86161566 0.922655 0.81031764 0.5066248 -0.1325948 -0.0040997933 0.60096574
-0.008986509 0.271836 -0.019166142 0.9673028 0.0009945956 0.5160061 0.0150099415 -0.61738116
-0.10859953 -0.104484856 -0.057508525 -0.46113393 -0.021645445 0.026296694 -0.5404894 0.7659228
0.022448106 0.17829654 0.00026197397 -0.038262155 0.028734166 0.35514048 1.3712162 -2.1064477
-0.032252092 -0.019915795 0.6955871 -0.045640927 -0.5274813 0.3671271 0.089994654 -0.49594045
0.044595513 0.2526294 0.07104176 0.36703077 0.01915318 0.14341564 -0.6128408 -0.20564316
0.34478235 0.024998514 0.021229215 -0.3321207 0.7778175 -0.00049268425 -0.030489568 0.08465377
-0.23913921 0.368729 0.68986595 -0.0400104 -0.034820195 -0.5208513 0.033401962 0.61972827
0.2126495 -0.032210626 0.3164724 -0.5486445 -0.095126204 0.0019689978 -0.15392561 0.019212328
0.18808058 0.03887147 0.4995323 -0.18993689 0.012168721 -0.006518901 -0.022075564 0.31436837
0.31347552 -0.034050453 0.3661294 0.7516839 0.088956565 0.040400706 -0.016108919 0.061340135
-0.2601529 0.22847769 -0.029992398 0.08559571 0.16542704 -0.038485605 -0.0034598114 -1.573466
-0.6255227 0.4839989 0.037096787 0.0032285794 -0.008024854 -0.058295105 0.14155996 3.4265685
-0.028718473 -3.476975 0.38934678 0.022775868 -0.5669033 -0.19698934 0.3555176 0.17019325
-2.2059503 0.079798505 0.008067626 0.09785106 -0.3368411 0.066611715 0.033397224 0.33193693
-0.32884398 0.37545604 0.6011833 0.03768639 -0.103363425 -0.17870769 -0.04741263 0.047689643
0.39485073 -1.5448307 -0.028789895 -0.6295533 -0.13514553 0.008770264 0.09524629 -0.19665584
-0.025450245 0.074736275 -0.035248313 -1.2252011 0.30972058 1.5829403 0.009959287 0.02429477
-0.012274258 0.084016174 0.1948249 0.05820627 -0.029779635 -0.53981435 0.0013211094 0.5389582
-0.26998186 0.39920145 -0.046084214 -0.57955295 0.1028006 -0.017713133 0.26880544 0.00021506524
0.013836592 -0.3317657 0.42989483 0.020515893 0.010440904 -0.033671197 -1.6546139 -0.36481625
-2.3508952 -0.04108053 -2.1503336 0.19521119 -0.29476774 -0.5965353 1.8063222 -0.41825438
0.0049936553 0.36723432 0.004580592 -0.35855365 0.25458708 0.02951697 -0.14257908 0.045406066
0.03604401 -0.5501448 0.30744484 0.07087161 0.005965245 0.00016639932 2.667557e-05 0.0746684
0.41053933 -0.015704222 0.09764459 -3.5507455 0.3076263 0.006003241 -0.61800677 -0.39057705
-0.31486577 0.060830504 0.02956166 -0.09545579 0.36078453 -0.4479981 -0.37808877 0.18559034
00000000: e4d3 9c3c 5a47 8c3b 3ab2 f43e e15a f33c
00000010: f080 a73c bee2 023e 67a2 ecba 59d2 80bc
00000020: 9534 12bb 20f1 0d3d 1d9f c73e f011 43bc
00000030: 6947 02bb 4622 6abd 5b06 12bd 9da3 46bc
00000040: 1ba0 20c0 78de ad3e 5a1c 713b 8eb4 d8bb
00000050: 39a2 173d 2c37 1fbf 2172 773f cd1f 883e
00000060: 625a 003f 90cc 303d f0dd ee3e 3ca2 b4bf
00000070: 1b38 d03d 0a15 b23b 52ee 01bc 69c1 f63c
00000080: 3d04 98bd c540 a73d 5531 3e3d eab3 8ebd
00000090: cea4 e43e 9cf6 7aba b2da e5be b834 c03c
000000a0: 57ed b73d 03a7 c23d 69cf 863e 1c8a 38c0
000000b0: 9941 f6be 3ac2 06bd ac99 7fbb fc82 5f3d
000000c0: 4b15 28bc d892 5c3f 1e33 6c3f fa70 4f3f
000000d0: 2ab2 013f eec6 07be 8f57 86bb e4d8 193f
000000e0: 273c 13bc 172e 8b3e 5002 9dbc 28a1 773f
000000f0: 175d 823a fa18 043f 42ec 753c b10c 1ebf
00000100: 6e69 debd 28fc d5bd 0f8e 6bbd bf19 ecbe
00000110: ca51 b1bc 2a6c d73c 835d 0abf 8413 443f
00000120: 17e5 b73c 5e93 363e 8d59 8939 c7b8 1cbd
00000130: ea63 eb3c f9d4 b53e 0384 af3f 0ad0 06c0
00000140: c51a 04bd 7326 a3bc ff11 323f fbf1 3abd
00000150: 0409 07bf 15f8 bb3e 1e4f b83d e8eb fdbe
00000160: c9a9 363d a458 813e 587e 913d 75eb bb3e
00000170: 21e7 9c3c 8ddb 123e 22e3 1cbf 1f94 52be
00000180: 5087 b03e afc9 cc3c e4e8 ad3c b90b aabe
00000190: 0c1f 473f 7b27 01ba 42c5 f9bc f55e ad3d
000001a0: e9e0 74be 0cca bc3e 0e9b 303f f2e1 23bd
000001b0: 9f9f 0ebd 8356 05bf 7fd0 083d 83a6 1e3f
000001c0: cac0 593e 4aef 03bd ac08 a23e f773 0cbf
000001d0: 87d1 c2bd 4d0a 013b ad9e 1dbe 2c63 9d3c
000001e0: 3298 403e b137 1f3d b3c2 ff3e d17e 42be
000001f0: 515f 473c 819c d5bb d0d7 b4bc e4f4 a03e
00000200: dd7f a03e 7d78 0bbd 5075 bb3e 5b6e 403f
00000210: dc2e b63d 367b 253d daf6 83bc cb3f 7b3d
00000220: c332 85be 0ef6 693e 9eb2 f5bc ce4c af3d
00000230: b565 293e 15a3 1dbd 01be 62bb 5567 c9bf
00000240: 4122 20bf b4ce f73e cdf2 173d 9396 533b
00000250: ad7a 03bc d9c6 6ebd 18f5 103e e64c 5b40
00000260: 0143 ebbc c286 5ec0 7658 c73e 7594 ba3c
00000270: 9320 11bf 93b7 49be 6706 b63e 2447 2e3e
00000280: 4a2e 0dc0 666d a33d 132e 043c 2366 c83d
00000290: 7076 acbe b96b 883d 87cb 083d a3f3 a93e
000002a0: 3d5e a8be c63b c03e 26e7 193f 0b5d 1a3d
000002b0: 34b0 d3bd 26ff 36be bf33 42bd 3756 433d
000002c0: e029 ca3e 03bd c5bf c9d8 ebbc 682a 21bf
000002d0: 9763 0abe 27b1 0f3c 7d10 c33d 2660 49be
000002e0: 087d d0bc 550f 993d 8960 10bd 64d3 9cbf
000002f0: b293 9e3e ca9d ca3f 472c 233c d305 c73c
00000300: f819 49bc ac10 ac3d 2e80 473e b369 6e3d
00000310: 6cf4 f3bc 4631 0abf 1329 ad3a 2af9 093f
00000320: 103b 8abe 2264 cc3e cdc2 3cbd 955d 14bf
00000330: 1f89 d23d 221b 91bc dea0 893e 2383 6139
00000340: e0b2 623c 32dd a9be 2d1b dc3e f210 a83c
00000350: 5310 2b3c cfea 09bd 63ca d3bf 32c9 babe
00000360: 1175 16c0 0f44 28bd 119f 09c0 71e5 473e
00000370: cceb 96be 8ab6 18bf 9135 e73f 7025 d6be
00000380: d1a1 a33b 2306 bc3e ca18 963b 5894 b7be
00000390: 3d59 823e 93cd f13c 4000 12be b6fb 393d
000003a0: e2a2 133d 4ad6 0cbf 6969 9d3e 2225 913d
000003b0: 1a78 c33b 7a7b 2e39 5ac5 df37 bfeb 983d
000003c0: 3632 d23e 24a6 80bc e3f9 c73d 6a3f 63c0
000003d0: 3281 9d3e d6b6 c43b b135 1ebf b7f9 c7be
000003e0: 1636 a1be 6829 793d 4b2b f23c 537e c3bd
000003f0: c0b8 b83e 0260 e5be da94 c1be 650b 3e3e

fc3.bias f4 [2]
0.05434046 0.11799992
00000000: 1a94 5e3d f1a9 f13d
